program(1.0)
[buildInfo = dict<tensor<string, []>, tensor<string, []>>({{"coremlc-component-MIL", "3510.2.1"}, {"coremlc-version", "3500.32.1"}, {"coremltools-component-torch", "2.9.1"}, {"coremltools-source-dialect", "TorchScript"}, {"coremltools-version", "9.0"}})]
{
    func main<ios16>(tensor<fp16, [1, 3, 512, 960]> img0, tensor<fp16, [1, 3, 512, 960]> img1, tensor<fp16, [1, 1, 1, 1]> time_step) {
            tensor<int32, [8]> x_1_pad_0 = const()[name = tensor<string, []>("x_1_pad_0"), val = tensor<int32, [8]>([0, 0, 0, 0, 1, 1, 1, 1])];
            tensor<string, []> x_1_mode_0 = const()[name = tensor<string, []>("x_1_mode_0"), val = tensor<string, []>("reflect")];
            tensor<fp16, []> const_3_to_fp16 = const()[name = tensor<string, []>("const_3_to_fp16"), val = tensor<fp16, []>(0x0p+0)];
            tensor<fp16, [1, 3, 514, 962]> x_1_cast_fp16 = pad(constant_val = const_3_to_fp16, mode = x_1_mode_0, pad = x_1_pad_0, x = img0)[name = tensor<string, []>("x_1_cast_fp16")];
            tensor<string, []> x_3_pad_type_0 = const()[name = tensor<string, []>("x_3_pad_type_0"), val = tensor<string, []>("valid")];
            tensor<int32, [2]> x_3_strides_0 = const()[name = tensor<string, []>("x_3_strides_0"), val = tensor<int32, [2]>([1, 2])];
            tensor<int32, []> x_3_groups_0 = const()[name = tensor<string, []>("x_3_groups_0"), val = tensor<int32, []>(3)];
            tensor<int32, [4]> x_3_pad_0 = const()[name = tensor<string, []>("x_3_pad_0"), val = tensor<int32, [4]>([0, 0, 0, 0])];
            tensor<int32, [2]> x_3_dilations_0 = const()[name = tensor<string, []>("x_3_dilations_0"), val = tensor<int32, [2]>([1, 1])];
            tensor<fp16, [3, 1, 1, 3]> downsampler_kernel_h_to_fp16 = const()[name = tensor<string, []>("downsampler_kernel_h_to_fp16"), val = tensor<fp16, [3, 1, 1, 3]>([[[[0x1p-2, 0x1p-1, 0x1p-2]]], [[[0x1p-2, 0x1p-1, 0x1p-2]]], [[[0x1p-2, 0x1p-1, 0x1p-2]]]])];
            tensor<fp16, [1, 3, 514, 480]> x_3_cast_fp16 = conv(dilations = x_3_dilations_0, groups = x_3_groups_0, pad = x_3_pad_0, pad_type = x_3_pad_type_0, strides = x_3_strides_0, weight = downsampler_kernel_h_to_fp16, x = x_1_cast_fp16)[name = tensor<string, []>("x_3_cast_fp16")];
            tensor<string, []> input_1_pad_type_0 = const()[name = tensor<string, []>("input_1_pad_type_0"), val = tensor<string, []>("valid")];
            tensor<int32, [2]> input_1_strides_0 = const()[name = tensor<string, []>("input_1_strides_0"), val = tensor<int32, [2]>([2, 1])];
            tensor<int32, []> input_1_groups_0 = const()[name = tensor<string, []>("input_1_groups_0"), val = tensor<int32, []>(3)];
            tensor<int32, [4]> input_1_pad_0 = const()[name = tensor<string, []>("input_1_pad_0"), val = tensor<int32, [4]>([0, 0, 0, 0])];
            tensor<int32, [2]> input_1_dilations_0 = const()[name = tensor<string, []>("input_1_dilations_0"), val = tensor<int32, [2]>([1, 1])];
            tensor<fp16, [3, 1, 3, 1]> downsampler_kernel_v_to_fp16 = const()[name = tensor<string, []>("downsampler_kernel_v_to_fp16"), val = tensor<fp16, [3, 1, 3, 1]>([[[[0x1p-2], [0x1p-1], [0x1p-2]]], [[[0x1p-2], [0x1p-1], [0x1p-2]]], [[[0x1p-2], [0x1p-1], [0x1p-2]]]])];
            tensor<fp16, [1, 3, 256, 480]> input_1_cast_fp16 = conv(dilations = input_1_dilations_0, groups = input_1_groups_0, pad = input_1_pad_0, pad_type = input_1_pad_type_0, strides = input_1_strides_0, weight = downsampler_kernel_v_to_fp16, x = x_3_cast_fp16)[name = tensor<string, []>("input_1_cast_fp16")];
            tensor<int32, [8]> x_5_pad_0 = const()[name = tensor<string, []>("x_5_pad_0"), val = tensor<int32, [8]>([0, 0, 0, 0, 1, 1, 1, 1])];
            tensor<string, []> x_5_mode_0 = const()[name = tensor<string, []>("x_5_mode_0"), val = tensor<string, []>("reflect")];
            tensor<fp16, []> const_4_to_fp16 = const()[name = tensor<string, []>("const_4_to_fp16"), val = tensor<fp16, []>(0x0p+0)];
            tensor<fp16, [1, 3, 514, 962]> x_5_cast_fp16 = pad(constant_val = const_4_to_fp16, mode = x_5_mode_0, pad = x_5_pad_0, x = img1)[name = tensor<string, []>("x_5_cast_fp16")];
            tensor<string, []> x_7_pad_type_0 = const()[name = tensor<string, []>("x_7_pad_type_0"), val = tensor<string, []>("valid")];
            tensor<int32, [2]> x_7_strides_0 = const()[name = tensor<string, []>("x_7_strides_0"), val = tensor<int32, [2]>([1, 2])];
            tensor<int32, []> x_7_groups_0 = const()[name = tensor<string, []>("x_7_groups_0"), val = tensor<int32, []>(3)];
            tensor<int32, [4]> x_7_pad_0 = const()[name = tensor<string, []>("x_7_pad_0"), val = tensor<int32, [4]>([0, 0, 0, 0])];
            tensor<int32, [2]> x_7_dilations_0 = const()[name = tensor<string, []>("x_7_dilations_0"), val = tensor<int32, [2]>([1, 1])];
            tensor<fp16, [1, 3, 514, 480]> x_7_cast_fp16 = conv(dilations = x_7_dilations_0, groups = x_7_groups_0, pad = x_7_pad_0, pad_type = x_7_pad_type_0, strides = x_7_strides_0, weight = downsampler_kernel_h_to_fp16, x = x_5_cast_fp16)[name = tensor<string, []>("x_7_cast_fp16")];
            tensor<string, []> input_3_pad_type_0 = const()[name = tensor<string, []>("input_3_pad_type_0"), val = tensor<string, []>("valid")];
            tensor<int32, [2]> input_3_strides_0 = const()[name = tensor<string, []>("input_3_strides_0"), val = tensor<int32, [2]>([2, 1])];
            tensor<int32, []> input_3_groups_0 = const()[name = tensor<string, []>("input_3_groups_0"), val = tensor<int32, []>(3)];
            tensor<int32, [4]> input_3_pad_0 = const()[name = tensor<string, []>("input_3_pad_0"), val = tensor<int32, [4]>([0, 0, 0, 0])];
            tensor<int32, [2]> input_3_dilations_0 = const()[name = tensor<string, []>("input_3_dilations_0"), val = tensor<int32, [2]>([1, 1])];
            tensor<fp16, [1, 3, 256, 480]> input_3_cast_fp16 = conv(dilations = input_3_dilations_0, groups = input_3_groups_0, pad = input_3_pad_0, pad_type = input_3_pad_type_0, strides = input_3_strides_0, weight = downsampler_kernel_v_to_fp16, x = x_7_cast_fp16)[name = tensor<string, []>("input_3_cast_fp16")];
            tensor<int32, [8]> x_9_pad_0 = const()[name = tensor<string, []>("x_9_pad_0"), val = tensor<int32, [8]>([0, 0, 0, 0, 1, 1, 1, 1])];
            tensor<string, []> x_9_mode_0 = const()[name = tensor<string, []>("x_9_mode_0"), val = tensor<string, []>("reflect")];
            tensor<fp16, []> const_5_to_fp16 = const()[name = tensor<string, []>("const_5_to_fp16"), val = tensor<fp16, []>(0x0p+0)];
            tensor<fp16, [1, 3, 258, 482]> x_9_cast_fp16 = pad(constant_val = const_5_to_fp16, mode = x_9_mode_0, pad = x_9_pad_0, x = input_1_cast_fp16)[name = tensor<string, []>("x_9_cast_fp16")];
            tensor<string, []> x_11_pad_type_0 = const()[name = tensor<string, []>("x_11_pad_type_0"), val = tensor<string, []>("valid")];
            tensor<int32, [2]> x_11_strides_0 = const()[name = tensor<string, []>("x_11_strides_0"), val = tensor<int32, [2]>([1, 2])];
            tensor<int32, []> x_11_groups_0 = const()[name = tensor<string, []>("x_11_groups_0"), val = tensor<int32, []>(3)];
            tensor<int32, [4]> x_11_pad_0 = const()[name = tensor<string, []>("x_11_pad_0"), val = tensor<int32, [4]>([0, 0, 0, 0])];
            tensor<int32, [2]> x_11_dilations_0 = const()[name = tensor<string, []>("x_11_dilations_0"), val = tensor<int32, [2]>([1, 1])];
            tensor<fp16, [1, 3, 258, 240]> x_11_cast_fp16 = conv(dilations = x_11_dilations_0, groups = x_11_groups_0, pad = x_11_pad_0, pad_type = x_11_pad_type_0, strides = x_11_strides_0, weight = downsampler_kernel_h_to_fp16, x = x_9_cast_fp16)[name = tensor<string, []>("x_11_cast_fp16")];
            tensor<string, []> input_5_pad_type_0 = const()[name = tensor<string, []>("input_5_pad_type_0"), val = tensor<string, []>("valid")];
            tensor<int32, [2]> input_5_strides_0 = const()[name = tensor<string, []>("input_5_strides_0"), val = tensor<int32, [2]>([2, 1])];
            tensor<int32, []> input_5_groups_0 = const()[name = tensor<string, []>("input_5_groups_0"), val = tensor<int32, []>(3)];
            tensor<int32, [4]> input_5_pad_0 = const()[name = tensor<string, []>("input_5_pad_0"), val = tensor<int32, [4]>([0, 0, 0, 0])];
            tensor<int32, [2]> input_5_dilations_0 = const()[name = tensor<string, []>("input_5_dilations_0"), val = tensor<int32, [2]>([1, 1])];
            tensor<fp16, [1, 3, 128, 240]> input_5_cast_fp16 = conv(dilations = input_5_dilations_0, groups = input_5_groups_0, pad = input_5_pad_0, pad_type = input_5_pad_type_0, strides = input_5_strides_0, weight = downsampler_kernel_v_to_fp16, x = x_11_cast_fp16)[name = tensor<string, []>("input_5_cast_fp16")];
            tensor<int32, [8]> x_13_pad_0 = const()[name = tensor<string, []>("x_13_pad_0"), val = tensor<int32, [8]>([0, 0, 0, 0, 1, 1, 1, 1])];
            tensor<string, []> x_13_mode_0 = const()[name = tensor<string, []>("x_13_mode_0"), val = tensor<string, []>("reflect")];
            tensor<fp16, []> const_6_to_fp16 = const()[name = tensor<string, []>("const_6_to_fp16"), val = tensor<fp16, []>(0x0p+0)];
            tensor<fp16, [1, 3, 258, 482]> x_13_cast_fp16 = pad(constant_val = const_6_to_fp16, mode = x_13_mode_0, pad = x_13_pad_0, x = input_3_cast_fp16)[name = tensor<string, []>("x_13_cast_fp16")];
            tensor<string, []> x_15_pad_type_0 = const()[name = tensor<string, []>("x_15_pad_type_0"), val = tensor<string, []>("valid")];
            tensor<int32, [2]> x_15_strides_0 = const()[name = tensor<string, []>("x_15_strides_0"), val = tensor<int32, [2]>([1, 2])];
            tensor<int32, []> x_15_groups_0 = const()[name = tensor<string, []>("x_15_groups_0"), val = tensor<int32, []>(3)];
            tensor<int32, [4]> x_15_pad_0 = const()[name = tensor<string, []>("x_15_pad_0"), val = tensor<int32, [4]>([0, 0, 0, 0])];
            tensor<int32, [2]> x_15_dilations_0 = const()[name = tensor<string, []>("x_15_dilations_0"), val = tensor<int32, [2]>([1, 1])];
            tensor<fp16, [1, 3, 258, 240]> x_15_cast_fp16 = conv(dilations = x_15_dilations_0, groups = x_15_groups_0, pad = x_15_pad_0, pad_type = x_15_pad_type_0, strides = x_15_strides_0, weight = downsampler_kernel_h_to_fp16, x = x_13_cast_fp16)[name = tensor<string, []>("x_15_cast_fp16")];
            tensor<string, []> input_7_pad_type_0 = const()[name = tensor<string, []>("input_7_pad_type_0"), val = tensor<string, []>("valid")];
            tensor<int32, [2]> input_7_strides_0 = const()[name = tensor<string, []>("input_7_strides_0"), val = tensor<int32, [2]>([2, 1])];
            tensor<int32, []> input_7_groups_0 = const()[name = tensor<string, []>("input_7_groups_0"), val = tensor<int32, []>(3)];
            tensor<int32, [4]> input_7_pad_0 = const()[name = tensor<string, []>("input_7_pad_0"), val = tensor<int32, [4]>([0, 0, 0, 0])];
            tensor<int32, [2]> input_7_dilations_0 = const()[name = tensor<string, []>("input_7_dilations_0"), val = tensor<int32, [2]>([1, 1])];
            tensor<fp16, [1, 3, 128, 240]> input_7_cast_fp16 = conv(dilations = input_7_dilations_0, groups = input_7_groups_0, pad = input_7_pad_0, pad_type = input_7_pad_type_0, strides = input_7_strides_0, weight = downsampler_kernel_v_to_fp16, x = x_15_cast_fp16)[name = tensor<string, []>("input_7_cast_fp16")];
            tensor<int32, [8]> x_17_pad_0 = const()[name = tensor<string, []>("x_17_pad_0"), val = tensor<int32, [8]>([0, 0, 0, 0, 1, 1, 1, 1])];
            tensor<string, []> x_17_mode_0 = const()[name = tensor<string, []>("x_17_mode_0"), val = tensor<string, []>("reflect")];
            tensor<fp16, []> const_7_to_fp16 = const()[name = tensor<string, []>("const_7_to_fp16"), val = tensor<fp16, []>(0x0p+0)];
            tensor<fp16, [1, 3, 130, 242]> x_17_cast_fp16 = pad(constant_val = const_7_to_fp16, mode = x_17_mode_0, pad = x_17_pad_0, x = input_5_cast_fp16)[name = tensor<string, []>("x_17_cast_fp16")];
            tensor<string, []> x_19_pad_type_0 = const()[name = tensor<string, []>("x_19_pad_type_0"), val = tensor<string, []>("valid")];
            tensor<int32, [2]> x_19_strides_0 = const()[name = tensor<string, []>("x_19_strides_0"), val = tensor<int32, [2]>([1, 2])];
            tensor<int32, []> x_19_groups_0 = const()[name = tensor<string, []>("x_19_groups_0"), val = tensor<int32, []>(3)];
            tensor<int32, [4]> x_19_pad_0 = const()[name = tensor<string, []>("x_19_pad_0"), val = tensor<int32, [4]>([0, 0, 0, 0])];
            tensor<int32, [2]> x_19_dilations_0 = const()[name = tensor<string, []>("x_19_dilations_0"), val = tensor<int32, [2]>([1, 1])];
            tensor<fp16, [1, 3, 130, 120]> x_19_cast_fp16 = conv(dilations = x_19_dilations_0, groups = x_19_groups_0, pad = x_19_pad_0, pad_type = x_19_pad_type_0, strides = x_19_strides_0, weight = downsampler_kernel_h_to_fp16, x = x_17_cast_fp16)[name = tensor<string, []>("x_19_cast_fp16")];
            tensor<string, []> img0_pad_type_0 = const()[name = tensor<string, []>("img0_pad_type_0"), val = tensor<string, []>("valid")];
            tensor<int32, [2]> img0_strides_0 = const()[name = tensor<string, []>("img0_strides_0"), val = tensor<int32, [2]>([2, 1])];
            tensor<int32, []> img0_groups_0 = const()[name = tensor<string, []>("img0_groups_0"), val = tensor<int32, []>(3)];
            tensor<int32, [4]> img0_pad_0 = const()[name = tensor<string, []>("img0_pad_0"), val = tensor<int32, [4]>([0, 0, 0, 0])];
            tensor<int32, [2]> img0_dilations_0 = const()[name = tensor<string, []>("img0_dilations_0"), val = tensor<int32, [2]>([1, 1])];
            tensor<fp16, [1, 3, 64, 120]> img0_cast_fp16 = conv(dilations = img0_dilations_0, groups = img0_groups_0, pad = img0_pad_0, pad_type = img0_pad_type_0, strides = img0_strides_0, weight = downsampler_kernel_v_to_fp16, x = x_19_cast_fp16)[name = tensor<string, []>("img0_cast_fp16")];
            tensor<int32, [8]> x_21_pad_0 = const()[name = tensor<string, []>("x_21_pad_0"), val = tensor<int32, [8]>([0, 0, 0, 0, 1, 1, 1, 1])];
            tensor<string, []> x_21_mode_0 = const()[name = tensor<string, []>("x_21_mode_0"), val = tensor<string, []>("reflect")];
            tensor<fp16, []> const_8_to_fp16 = const()[name = tensor<string, []>("const_8_to_fp16"), val = tensor<fp16, []>(0x0p+0)];
            tensor<fp16, [1, 3, 130, 242]> x_21_cast_fp16 = pad(constant_val = const_8_to_fp16, mode = x_21_mode_0, pad = x_21_pad_0, x = input_7_cast_fp16)[name = tensor<string, []>("x_21_cast_fp16")];
            tensor<string, []> x_23_pad_type_0 = const()[name = tensor<string, []>("x_23_pad_type_0"), val = tensor<string, []>("valid")];
            tensor<int32, [2]> x_23_strides_0 = const()[name = tensor<string, []>("x_23_strides_0"), val = tensor<int32, [2]>([1, 2])];
            tensor<int32, []> x_23_groups_0 = const()[name = tensor<string, []>("x_23_groups_0"), val = tensor<int32, []>(3)];
            tensor<int32, [4]> x_23_pad_0 = const()[name = tensor<string, []>("x_23_pad_0"), val = tensor<int32, [4]>([0, 0, 0, 0])];
            tensor<int32, [2]> x_23_dilations_0 = const()[name = tensor<string, []>("x_23_dilations_0"), val = tensor<int32, [2]>([1, 1])];
            tensor<fp16, [1, 3, 130, 120]> x_23_cast_fp16 = conv(dilations = x_23_dilations_0, groups = x_23_groups_0, pad = x_23_pad_0, pad_type = x_23_pad_type_0, strides = x_23_strides_0, weight = downsampler_kernel_h_to_fp16, x = x_21_cast_fp16)[name = tensor<string, []>("x_23_cast_fp16")];
            tensor<string, []> img1_pad_type_0 = const()[name = tensor<string, []>("img1_pad_type_0"), val = tensor<string, []>("valid")];
            tensor<int32, [2]> img1_strides_0 = const()[name = tensor<string, []>("img1_strides_0"), val = tensor<int32, [2]>([2, 1])];
            tensor<int32, []> img1_groups_0 = const()[name = tensor<string, []>("img1_groups_0"), val = tensor<int32, []>(3)];
            tensor<int32, [4]> img1_pad_0 = const()[name = tensor<string, []>("img1_pad_0"), val = tensor<int32, [4]>([0, 0, 0, 0])];
            tensor<int32, [2]> img1_dilations_0 = const()[name = tensor<string, []>("img1_dilations_0"), val = tensor<int32, [2]>([1, 1])];
            tensor<fp16, [1, 3, 64, 120]> img1_cast_fp16 = conv(dilations = img1_dilations_0, groups = img1_groups_0, pad = img1_pad_0, pad_type = img1_pad_type_0, strides = img1_strides_0, weight = downsampler_kernel_v_to_fp16, x = x_23_cast_fp16)[name = tensor<string, []>("img1_cast_fp16")];
            tensor<int32, [1]> squeeze_0_axes_0 = const()[name = tensor<string, []>("squeeze_0_axes_0"), val = tensor<int32, [1]>([0])];
            tensor<fp16, [1, 1, 1]> squeeze_0_cast_fp16 = squeeze(axes = squeeze_0_axes_0, x = time_step)[name = tensor<string, []>("squeeze_0_cast_fp16")];
            tensor<int32, []> var_183 = const()[name = tensor<string, []>("op_183"), val = tensor<int32, []>(0)];
            tensor<bool, []> input_9_interleave_0 = const()[name = tensor<string, []>("input_9_interleave_0"), val = tensor<bool, []>(false)];
            tensor<fp16, [2, 3, 64, 120]> input_9_cast_fp16 = concat(axis = var_183, interleave = input_9_interleave_0, values = (img0_cast_fp16, img1_cast_fp16))[name = tensor<string, []>("input_9_cast_fp16")];
            tensor<uint32, []> input_11_downscale_factor_0 = const()[name = tensor<string, []>("input_11_downscale_factor_0"), val = tensor<uint32, []>(2)];
            tensor<fp16, [2, 12, 32, 60]> input_11_cast_fp16 = pixel_unshuffle(downscale_factor = input_11_downscale_factor_0, x = input_9_cast_fp16)[name = tensor<string, []>("input_11_cast_fp16")];
            tensor<string, []> input_13_pad_type_0 = const()[name = tensor<string, []>("input_13_pad_type_0"), val = tensor<string, []>("custom")];
            tensor<int32, [4]> input_13_pad_0 = const()[name = tensor<string, []>("input_13_pad_0"), val = tensor<int32, [4]>([1, 1, 1, 1])];
            tensor<int32, [2]> input_13_strides_0 = const()[name = tensor<string, []>("input_13_strides_0"), val = tensor<int32, [2]>([1, 1])];
            tensor<int32, [2]> input_13_dilations_0 = const()[name = tensor<string, []>("input_13_dilations_0"), val = tensor<int32, [2]>([1, 1])];
            tensor<int32, []> input_13_groups_0 = const()[name = tensor<string, []>("input_13_groups_0"), val = tensor<int32, []>(1)];
            tensor<fp16, [32, 12, 3, 3]> mfe_conv_weight_to_fp16 = const()[name = tensor<string, []>("mfe_conv_weight_to_fp16"), val = tensor<fp16, [32, 12, 3, 3]>(BLOBFILE(path = tensor<string, []>("@model_path/weights/weight.bin"), offset = tensor<uint64, []>(64)))];
            tensor<fp16, [32]> mfe_conv_bias_to_fp16 = const()[name = tensor<string, []>("mfe_conv_bias_to_fp16"), val = tensor<fp16, [32]>(BLOBFILE(path = tensor<string, []>("@model_path/weights/weight.bin"), offset = tensor<uint64, []>(7040)))];
            tensor<fp16, [2, 32, 32, 60]> input_13_cast_fp16 = conv(bias = mfe_conv_bias_to_fp16, dilations = input_13_dilations_0, groups = input_13_groups_0, pad = input_13_pad_0, pad_type = input_13_pad_type_0, strides = input_13_strides_0, weight = mfe_conv_weight_to_fp16, x = input_11_cast_fp16)[name = tensor<string, []>("input_13_cast_fp16")];
            tensor<fp16, []> var_188_to_fp16 = const()[name = tensor<string, []>("op_188_to_fp16"), val = tensor<fp16, []>(0x1.5p-17)];
            tensor<fp16, [2, 32, 32, 60]> input_15_cast_fp16 = instance_norm(epsilon = var_188_to_fp16, x = input_13_cast_fp16)[name = tensor<string, []>("input_15_cast_fp16")];
            tensor<string, []> input_17_pad_type_0 = const()[name = tensor<string, []>("input_17_pad_type_0"), val = tensor<string, []>("custom")];
            tensor<int32, [4]> input_17_pad_0 = const()[name = tensor<string, []>("input_17_pad_0"), val = tensor<int32, [4]>([1, 1, 1, 1])];
            tensor<int32, [2]> input_17_strides_0 = const()[name = tensor<string, []>("input_17_strides_0"), val = tensor<int32, [2]>([1, 1])];
            tensor<int32, [2]> input_17_dilations_0 = const()[name = tensor<string, []>("input_17_dilations_0"), val = tensor<int32, [2]>([1, 1])];
            tensor<int32, []> input_17_groups_0 = const()[name = tensor<string, []>("input_17_groups_0"), val = tensor<int32, []>(1)];
            tensor<fp16, [32, 32, 3, 3]> mfe_layer0_0_conv1_weight_to_fp16 = const()[name = tensor<string, []>("mfe_layer0_0_conv1_weight_to_fp16"), val = tensor<fp16, [32, 32, 3, 3]>(BLOBFILE(path = tensor<string, []>("@model_path/weights/weight.bin"), offset = tensor<uint64, []>(7168)))];
            tensor<fp16, [32]> mfe_layer0_0_conv1_bias_to_fp16 = const()[name = tensor<string, []>("mfe_layer0_0_conv1_bias_to_fp16"), val = tensor<fp16, [32]>(BLOBFILE(path = tensor<string, []>("@model_path/weights/weight.bin"), offset = tensor<uint64, []>(25664)))];
            tensor<fp16, [2, 32, 32, 60]> input_17_cast_fp16 = conv(bias = mfe_layer0_0_conv1_bias_to_fp16, dilations = input_17_dilations_0, groups = input_17_groups_0, pad = input_17_pad_0, pad_type = input_17_pad_type_0, strides = input_17_strides_0, weight = mfe_layer0_0_conv1_weight_to_fp16, x = input_15_cast_fp16)[name = tensor<string, []>("input_17_cast_fp16")];
            tensor<fp16, []> var_185_to_fp16 = const()[name = tensor<string, []>("op_185_to_fp16"), val = tensor<fp16, []>(0x1.47cp-7)];
            tensor<fp16, [2, 32, 32, 60]> input_19_cast_fp16 = leaky_relu(alpha = var_185_to_fp16, x = input_17_cast_fp16)[name = tensor<string, []>("input_19_cast_fp16")];
            tensor<fp16, [2, 32, 32, 60]> input_21_cast_fp16 = instance_norm(epsilon = var_188_to_fp16, x = input_19_cast_fp16)[name = tensor<string, []>("input_21_cast_fp16")];
            tensor<string, []> input_23_pad_type_0 = const()[name = tensor<string, []>("input_23_pad_type_0"), val = tensor<string, []>("custom")];
            tensor<int32, [4]> input_23_pad_0 = const()[name = tensor<string, []>("input_23_pad_0"), val = tensor<int32, [4]>([1, 1, 1, 1])];
            tensor<int32, [2]> input_23_strides_0 = const()[name = tensor<string, []>("input_23_strides_0"), val = tensor<int32, [2]>([1, 1])];
            tensor<int32, [2]> input_23_dilations_0 = const()[name = tensor<string, []>("input_23_dilations_0"), val = tensor<int32, [2]>([1, 1])];
            tensor<int32, []> input_23_groups_0 = const()[name = tensor<string, []>("input_23_groups_0"), val = tensor<int32, []>(1)];
            tensor<fp16, [32, 32, 3, 3]> mfe_layer0_0_conv2_weight_to_fp16 = const()[name = tensor<string, []>("mfe_layer0_0_conv2_weight_to_fp16"), val = tensor<fp16, [32, 32, 3, 3]>(BLOBFILE(path = tensor<string, []>("@model_path/weights/weight.bin"), offset = tensor<uint64, []>(25792)))];
            tensor<fp16, [32]> mfe_layer0_0_conv2_bias_to_fp16 = const()[name = tensor<string, []>("mfe_layer0_0_conv2_bias_to_fp16"), val = tensor<fp16, [32]>(BLOBFILE(path = tensor<string, []>("@model_path/weights/weight.bin"), offset = tensor<uint64, []>(44288)))];
            tensor<fp16, [2, 32, 32, 60]> input_23_cast_fp16 = conv(bias = mfe_layer0_0_conv2_bias_to_fp16, dilations = input_23_dilations_0, groups = input_23_groups_0, pad = input_23_pad_0, pad_type = input_23_pad_type_0, strides = input_23_strides_0, weight = mfe_layer0_0_conv2_weight_to_fp16, x = input_21_cast_fp16)[name = tensor<string, []>("input_23_cast_fp16")];
            tensor<fp16, [2, 32, 32, 60]> out_1_cast_fp16 = leaky_relu(alpha = var_185_to_fp16, x = input_23_cast_fp16)[name = tensor<string, []>("out_1_cast_fp16")];
            tensor<fp16, [2, 32, 32, 60]> input_25_cast_fp16 = add(x = out_1_cast_fp16, y = input_13_cast_fp16)[name = tensor<string, []>("input_25_cast_fp16")];
            tensor<string, []> input_27_pad_type_0 = const()[name = tensor<string, []>("input_27_pad_type_0"), val = tensor<string, []>("valid")];
            tensor<int32, [2]> input_27_strides_0 = const()[name = tensor<string, []>("input_27_strides_0"), val = tensor<int32, [2]>([2, 2])];
            tensor<int32, [4]> input_27_pad_0 = const()[name = tensor<string, []>("input_27_pad_0"), val = tensor<int32, [4]>([0, 0, 0, 0])];
            tensor<int32, [2]> input_27_dilations_0 = const()[name = tensor<string, []>("input_27_dilations_0"), val = tensor<int32, [2]>([1, 1])];
            tensor<int32, []> input_27_groups_0 = const()[name = tensor<string, []>("input_27_groups_0"), val = tensor<int32, []>(1)];
            tensor<fp16, [64, 32, 2, 2]> mfe_layer1_0_weight_to_fp16 = const()[name = tensor<string, []>("mfe_layer1_0_weight_to_fp16"), val = tensor<fp16, [64, 32, 2, 2]>(BLOBFILE(path = tensor<string, []>("@model_path/weights/weight.bin"), offset = tensor<uint64, []>(44416)))];
            tensor<fp16, [64]> mfe_layer1_0_bias_to_fp16 = const()[name = tensor<string, []>("mfe_layer1_0_bias_to_fp16"), val = tensor<fp16, [64]>(BLOBFILE(path = tensor<string, []>("@model_path/weights/weight.bin"), offset = tensor<uint64, []>(60864)))];
            tensor<fp16, [2, 64, 16, 30]> input_27_cast_fp16 = conv(bias = mfe_layer1_0_bias_to_fp16, dilations = input_27_dilations_0, groups = input_27_groups_0, pad = input_27_pad_0, pad_type = input_27_pad_type_0, strides = input_27_strides_0, weight = mfe_layer1_0_weight_to_fp16, x = input_25_cast_fp16)[name = tensor<string, []>("input_27_cast_fp16")];
            tensor<fp16, [2, 64, 16, 30]> input_29_cast_fp16 = instance_norm(epsilon = var_188_to_fp16, x = input_27_cast_fp16)[name = tensor<string, []>("input_29_cast_fp16")];
            tensor<string, []> input_31_pad_type_0 = const()[name = tensor<string, []>("input_31_pad_type_0"), val = tensor<string, []>("custom")];
            tensor<int32, [4]> input_31_pad_0 = const()[name = tensor<string, []>("input_31_pad_0"), val = tensor<int32, [4]>([1, 1, 1, 1])];
            tensor<int32, [2]> input_31_strides_0 = const()[name = tensor<string, []>("input_31_strides_0"), val = tensor<int32, [2]>([1, 1])];
            tensor<int32, [2]> input_31_dilations_0 = const()[name = tensor<string, []>("input_31_dilations_0"), val = tensor<int32, [2]>([1, 1])];
            tensor<int32, []> input_31_groups_0 = const()[name = tensor<string, []>("input_31_groups_0"), val = tensor<int32, []>(1)];
            tensor<fp16, [64, 64, 3, 3]> mfe_layer1_1_conv1_weight_to_fp16 = const()[name = tensor<string, []>("mfe_layer1_1_conv1_weight_to_fp16"), val = tensor<fp16, [64, 64, 3, 3]>(BLOBFILE(path = tensor<string, []>("@model_path/weights/weight.bin"), offset = tensor<uint64, []>(61056)))];
            tensor<fp16, [64]> mfe_layer1_1_conv1_bias_to_fp16 = const()[name = tensor<string, []>("mfe_layer1_1_conv1_bias_to_fp16"), val = tensor<fp16, [64]>(BLOBFILE(path = tensor<string, []>("@model_path/weights/weight.bin"), offset = tensor<uint64, []>(134848)))];
            tensor<fp16, [2, 64, 16, 30]> input_31_cast_fp16 = conv(bias = mfe_layer1_1_conv1_bias_to_fp16, dilations = input_31_dilations_0, groups = input_31_groups_0, pad = input_31_pad_0, pad_type = input_31_pad_type_0, strides = input_31_strides_0, weight = mfe_layer1_1_conv1_weight_to_fp16, x = input_29_cast_fp16)[name = tensor<string, []>("input_31_cast_fp16")];
            tensor<fp16, [2, 64, 16, 30]> input_33_cast_fp16 = leaky_relu(alpha = var_185_to_fp16, x = input_31_cast_fp16)[name = tensor<string, []>("input_33_cast_fp16")];
            tensor<fp16, [2, 64, 16, 30]> input_35_cast_fp16 = instance_norm(epsilon = var_188_to_fp16, x = input_33_cast_fp16)[name = tensor<string, []>("input_35_cast_fp16")];
            tensor<string, []> input_37_pad_type_0 = const()[name = tensor<string, []>("input_37_pad_type_0"), val = tensor<string, []>("custom")];
            tensor<int32, [4]> input_37_pad_0 = const()[name = tensor<string, []>("input_37_pad_0"), val = tensor<int32, [4]>([1, 1, 1, 1])];
            tensor<int32, [2]> input_37_strides_0 = const()[name = tensor<string, []>("input_37_strides_0"), val = tensor<int32, [2]>([1, 1])];
            tensor<int32, [2]> input_37_dilations_0 = const()[name = tensor<string, []>("input_37_dilations_0"), val = tensor<int32, [2]>([1, 1])];
            tensor<int32, []> input_37_groups_0 = const()[name = tensor<string, []>("input_37_groups_0"), val = tensor<int32, []>(1)];
            tensor<fp16, [64, 64, 3, 3]> mfe_layer1_1_conv2_weight_to_fp16 = const()[name = tensor<string, []>("mfe_layer1_1_conv2_weight_to_fp16"), val = tensor<fp16, [64, 64, 3, 3]>(BLOBFILE(path = tensor<string, []>("@model_path/weights/weight.bin"), offset = tensor<uint64, []>(135040)))];
            tensor<fp16, [64]> mfe_layer1_1_conv2_bias_to_fp16 = const()[name = tensor<string, []>("mfe_layer1_1_conv2_bias_to_fp16"), val = tensor<fp16, [64]>(BLOBFILE(path = tensor<string, []>("@model_path/weights/weight.bin"), offset = tensor<uint64, []>(208832)))];
            tensor<fp16, [2, 64, 16, 30]> input_37_cast_fp16 = conv(bias = mfe_layer1_1_conv2_bias_to_fp16, dilations = input_37_dilations_0, groups = input_37_groups_0, pad = input_37_pad_0, pad_type = input_37_pad_type_0, strides = input_37_strides_0, weight = mfe_layer1_1_conv2_weight_to_fp16, x = input_35_cast_fp16)[name = tensor<string, []>("input_37_cast_fp16")];
            tensor<fp16, [2, 64, 16, 30]> out_3_cast_fp16 = leaky_relu(alpha = var_185_to_fp16, x = input_37_cast_fp16)[name = tensor<string, []>("out_3_cast_fp16")];
            tensor<fp16, [2, 64, 16, 30]> input_39_cast_fp16 = add(x = out_3_cast_fp16, y = input_27_cast_fp16)[name = tensor<string, []>("input_39_cast_fp16")];
            tensor<string, []> input_41_pad_type_0 = const()[name = tensor<string, []>("input_41_pad_type_0"), val = tensor<string, []>("valid")];
            tensor<int32, [2]> input_41_strides_0 = const()[name = tensor<string, []>("input_41_strides_0"), val = tensor<int32, [2]>([2, 2])];
            tensor<int32, [4]> input_41_pad_0 = const()[name = tensor<string, []>("input_41_pad_0"), val = tensor<int32, [4]>([0, 0, 0, 0])];
            tensor<int32, [2]> input_41_dilations_0 = const()[name = tensor<string, []>("input_41_dilations_0"), val = tensor<int32, [2]>([1, 1])];
            tensor<int32, []> input_41_groups_0 = const()[name = tensor<string, []>("input_41_groups_0"), val = tensor<int32, []>(1)];
            tensor<fp16, [128, 64, 2, 2]> mfe_layer2_0_weight_to_fp16 = const()[name = tensor<string, []>("mfe_layer2_0_weight_to_fp16"), val = tensor<fp16, [128, 64, 2, 2]>(BLOBFILE(path = tensor<string, []>("@model_path/weights/weight.bin"), offset = tensor<uint64, []>(209024)))];
            tensor<fp16, [128]> mfe_layer2_0_bias_to_fp16 = const()[name = tensor<string, []>("mfe_layer2_0_bias_to_fp16"), val = tensor<fp16, [128]>(BLOBFILE(path = tensor<string, []>("@model_path/weights/weight.bin"), offset = tensor<uint64, []>(274624)))];
            tensor<fp16, [2, 128, 8, 15]> input_41_cast_fp16 = conv(bias = mfe_layer2_0_bias_to_fp16, dilations = input_41_dilations_0, groups = input_41_groups_0, pad = input_41_pad_0, pad_type = input_41_pad_type_0, strides = input_41_strides_0, weight = mfe_layer2_0_weight_to_fp16, x = input_39_cast_fp16)[name = tensor<string, []>("input_41_cast_fp16")];
            tensor<fp16, [2, 128, 8, 15]> input_43_cast_fp16 = instance_norm(epsilon = var_188_to_fp16, x = input_41_cast_fp16)[name = tensor<string, []>("input_43_cast_fp16")];
            tensor<string, []> input_45_pad_type_0 = const()[name = tensor<string, []>("input_45_pad_type_0"), val = tensor<string, []>("custom")];
            tensor<int32, [4]> input_45_pad_0 = const()[name = tensor<string, []>("input_45_pad_0"), val = tensor<int32, [4]>([1, 1, 1, 1])];
            tensor<int32, [2]> input_45_strides_0 = const()[name = tensor<string, []>("input_45_strides_0"), val = tensor<int32, [2]>([1, 1])];
            tensor<int32, [2]> input_45_dilations_0 = const()[name = tensor<string, []>("input_45_dilations_0"), val = tensor<int32, [2]>([1, 1])];
            tensor<int32, []> input_45_groups_0 = const()[name = tensor<string, []>("input_45_groups_0"), val = tensor<int32, []>(1)];
            tensor<fp16, [128, 128, 3, 3]> mfe_layer2_1_conv1_weight_to_fp16 = const()[name = tensor<string, []>("mfe_layer2_1_conv1_weight_to_fp16"), val = tensor<fp16, [128, 128, 3, 3]>(BLOBFILE(path = tensor<string, []>("@model_path/weights/weight.bin"), offset = tensor<uint64, []>(274944)))];
            tensor<fp16, [128]> mfe_layer2_1_conv1_bias_to_fp16 = const()[name = tensor<string, []>("mfe_layer2_1_conv1_bias_to_fp16"), val = tensor<fp16, [128]>(BLOBFILE(path = tensor<string, []>("@model_path/weights/weight.bin"), offset = tensor<uint64, []>(569920)))];
            tensor<fp16, [2, 128, 8, 15]> input_45_cast_fp16 = conv(bias = mfe_layer2_1_conv1_bias_to_fp16, dilations = input_45_dilations_0, groups = input_45_groups_0, pad = input_45_pad_0, pad_type = input_45_pad_type_0, strides = input_45_strides_0, weight = mfe_layer2_1_conv1_weight_to_fp16, x = input_43_cast_fp16)[name = tensor<string, []>("input_45_cast_fp16")];
            tensor<fp16, [2, 128, 8, 15]> input_47_cast_fp16 = leaky_relu(alpha = var_185_to_fp16, x = input_45_cast_fp16)[name = tensor<string, []>("input_47_cast_fp16")];
            tensor<fp16, [2, 128, 8, 15]> input_49_cast_fp16 = instance_norm(epsilon = var_188_to_fp16, x = input_47_cast_fp16)[name = tensor<string, []>("input_49_cast_fp16")];
            tensor<string, []> input_51_pad_type_0 = const()[name = tensor<string, []>("input_51_pad_type_0"), val = tensor<string, []>("custom")];
            tensor<int32, [4]> input_51_pad_0 = const()[name = tensor<string, []>("input_51_pad_0"), val = tensor<int32, [4]>([1, 1, 1, 1])];
            tensor<int32, [2]> input_51_strides_0 = const()[name = tensor<string, []>("input_51_strides_0"), val = tensor<int32, [2]>([1, 1])];
            tensor<int32, [2]> input_51_dilations_0 = const()[name = tensor<string, []>("input_51_dilations_0"), val = tensor<int32, [2]>([1, 1])];
            tensor<int32, []> input_51_groups_0 = const()[name = tensor<string, []>("input_51_groups_0"), val = tensor<int32, []>(1)];
            tensor<fp16, [128, 128, 3, 3]> mfe_layer2_1_conv2_weight_to_fp16 = const()[name = tensor<string, []>("mfe_layer2_1_conv2_weight_to_fp16"), val = tensor<fp16, [128, 128, 3, 3]>(BLOBFILE(path = tensor<string, []>("@model_path/weights/weight.bin"), offset = tensor<uint64, []>(570240)))];
            tensor<fp16, [128]> mfe_layer2_1_conv2_bias_to_fp16 = const()[name = tensor<string, []>("mfe_layer2_1_conv2_bias_to_fp16"), val = tensor<fp16, [128]>(BLOBFILE(path = tensor<string, []>("@model_path/weights/weight.bin"), offset = tensor<uint64, []>(865216)))];
            tensor<fp16, [2, 128, 8, 15]> input_51_cast_fp16 = conv(bias = mfe_layer2_1_conv2_bias_to_fp16, dilations = input_51_dilations_0, groups = input_51_groups_0, pad = input_51_pad_0, pad_type = input_51_pad_type_0, strides = input_51_strides_0, weight = mfe_layer2_1_conv2_weight_to_fp16, x = input_49_cast_fp16)[name = tensor<string, []>("input_51_cast_fp16")];
            tensor<fp16, [2, 128, 8, 15]> out_5_cast_fp16 = leaky_relu(alpha = var_185_to_fp16, x = input_51_cast_fp16)[name = tensor<string, []>("out_5_cast_fp16")];
            tensor<fp16, [2, 128, 8, 15]> input_53_cast_fp16 = add(x = out_5_cast_fp16, y = input_41_cast_fp16)[name = tensor<string, []>("input_53_cast_fp16")];
            tensor<string, []> feat_3_pad_type_0 = const()[name = tensor<string, []>("feat_3_pad_type_0"), val = tensor<string, []>("custom")];
            tensor<int32, [4]> feat_3_pad_0 = const()[name = tensor<string, []>("feat_3_pad_0"), val = tensor<int32, [4]>([1, 1, 1, 1])];
            tensor<int32, [2]> feat_3_strides_0 = const()[name = tensor<string, []>("feat_3_strides_0"), val = tensor<int32, [2]>([1, 1])];
            tensor<int32, [2]> feat_3_dilations_0 = const()[name = tensor<string, []>("feat_3_dilations_0"), val = tensor<int32, [2]>([1, 1])];
            tensor<int32, []> feat_3_groups_0 = const()[name = tensor<string, []>("feat_3_groups_0"), val = tensor<int32, []>(1)];
            tensor<fp16, [128, 128, 3, 3]> mfe_conv_last_weight_to_fp16 = const()[name = tensor<string, []>("mfe_conv_last_weight_to_fp16"), val = tensor<fp16, [128, 128, 3, 3]>(BLOBFILE(path = tensor<string, []>("@model_path/weights/weight.bin"), offset = tensor<uint64, []>(865536)))];
            tensor<fp16, [128]> mfe_conv_last_bias_to_fp16 = const()[name = tensor<string, []>("mfe_conv_last_bias_to_fp16"), val = tensor<fp16, [128]>(BLOBFILE(path = tensor<string, []>("@model_path/weights/weight.bin"), offset = tensor<uint64, []>(1160512)))];
            tensor<fp16, [2, 128, 8, 15]> feat_3_cast_fp16 = conv(bias = mfe_conv_last_bias_to_fp16, dilations = feat_3_dilations_0, groups = feat_3_groups_0, pad = feat_3_pad_0, pad_type = feat_3_pad_type_0, strides = feat_3_strides_0, weight = mfe_conv_last_weight_to_fp16, x = input_53_cast_fp16)[name = tensor<string, []>("feat_3_cast_fp16")];
            tensor<string, []> input_57_pad_type_0 = const()[name = tensor<string, []>("input_57_pad_type_0"), val = tensor<string, []>("custom")];
            tensor<int32, [4]> input_57_pad_0 = const()[name = tensor<string, []>("input_57_pad_0"), val = tensor<int32, [4]>([1, 1, 1, 1])];
            tensor<int32, [2]> input_57_strides_0 = const()[name = tensor<string, []>("input_57_strides_0"), val = tensor<int32, [2]>([1, 1])];
            tensor<int32, [2]> input_57_dilations_0 = const()[name = tensor<string, []>("input_57_dilations_0"), val = tensor<int32, [2]>([1, 1])];
            tensor<int32, []> input_57_groups_0 = const()[name = tensor<string, []>("input_57_groups_0"), val = tensor<int32, []>(1)];
            tensor<fp16, [32, 12, 3, 3]> cfe_conv_weight_to_fp16 = const()[name = tensor<string, []>("cfe_conv_weight_to_fp16"), val = tensor<fp16, [32, 12, 3, 3]>(BLOBFILE(path = tensor<string, []>("@model_path/weights/weight.bin"), offset = tensor<uint64, []>(1160832)))];
            tensor<fp16, [32]> cfe_conv_bias_to_fp16 = const()[name = tensor<string, []>("cfe_conv_bias_to_fp16"), val = tensor<fp16, [32]>(BLOBFILE(path = tensor<string, []>("@model_path/weights/weight.bin"), offset = tensor<uint64, []>(1167808)))];
            tensor<fp16, [2, 32, 32, 60]> input_57_cast_fp16 = conv(bias = cfe_conv_bias_to_fp16, dilations = input_57_dilations_0, groups = input_57_groups_0, pad = input_57_pad_0, pad_type = input_57_pad_type_0, strides = input_57_strides_0, weight = cfe_conv_weight_to_fp16, x = input_11_cast_fp16)[name = tensor<string, []>("input_57_cast_fp16")];
            tensor<fp16, []> var_303_to_fp16 = const()[name = tensor<string, []>("op_303_to_fp16"), val = tensor<fp16, []>(0x1.5p-17)];
            tensor<fp16, [2, 32, 32, 60]> input_59_cast_fp16 = instance_norm(epsilon = var_303_to_fp16, x = input_57_cast_fp16)[name = tensor<string, []>("input_59_cast_fp16")];
            tensor<string, []> input_61_pad_type_0 = const()[name = tensor<string, []>("input_61_pad_type_0"), val = tensor<string, []>("custom")];
            tensor<int32, [4]> input_61_pad_0 = const()[name = tensor<string, []>("input_61_pad_0"), val = tensor<int32, [4]>([1, 1, 1, 1])];
            tensor<int32, [2]> input_61_strides_0 = const()[name = tensor<string, []>("input_61_strides_0"), val = tensor<int32, [2]>([1, 1])];
            tensor<int32, [2]> input_61_dilations_0 = const()[name = tensor<string, []>("input_61_dilations_0"), val = tensor<int32, [2]>([1, 1])];
            tensor<int32, []> input_61_groups_0 = const()[name = tensor<string, []>("input_61_groups_0"), val = tensor<int32, []>(1)];
            tensor<fp16, [32, 32, 3, 3]> cfe_layer0_0_conv1_weight_to_fp16 = const()[name = tensor<string, []>("cfe_layer0_0_conv1_weight_to_fp16"), val = tensor<fp16, [32, 32, 3, 3]>(BLOBFILE(path = tensor<string, []>("@model_path/weights/weight.bin"), offset = tensor<uint64, []>(1167936)))];
            tensor<fp16, [32]> cfe_layer0_0_conv1_bias_to_fp16 = const()[name = tensor<string, []>("cfe_layer0_0_conv1_bias_to_fp16"), val = tensor<fp16, [32]>(BLOBFILE(path = tensor<string, []>("@model_path/weights/weight.bin"), offset = tensor<uint64, []>(1186432)))];
            tensor<fp16, [2, 32, 32, 60]> input_61_cast_fp16 = conv(bias = cfe_layer0_0_conv1_bias_to_fp16, dilations = input_61_dilations_0, groups = input_61_groups_0, pad = input_61_pad_0, pad_type = input_61_pad_type_0, strides = input_61_strides_0, weight = cfe_layer0_0_conv1_weight_to_fp16, x = input_59_cast_fp16)[name = tensor<string, []>("input_61_cast_fp16")];
            tensor<fp16, []> var_300_to_fp16 = const()[name = tensor<string, []>("op_300_to_fp16"), val = tensor<fp16, []>(0x1.47cp-7)];
            tensor<fp16, [2, 32, 32, 60]> input_63_cast_fp16 = leaky_relu(alpha = var_300_to_fp16, x = input_61_cast_fp16)[name = tensor<string, []>("input_63_cast_fp16")];
            tensor<fp16, [2, 32, 32, 60]> input_65_cast_fp16 = instance_norm(epsilon = var_303_to_fp16, x = input_63_cast_fp16)[name = tensor<string, []>("input_65_cast_fp16")];
            tensor<string, []> input_67_pad_type_0 = const()[name = tensor<string, []>("input_67_pad_type_0"), val = tensor<string, []>("custom")];
            tensor<int32, [4]> input_67_pad_0 = const()[name = tensor<string, []>("input_67_pad_0"), val = tensor<int32, [4]>([1, 1, 1, 1])];
            tensor<int32, [2]> input_67_strides_0 = const()[name = tensor<string, []>("input_67_strides_0"), val = tensor<int32, [2]>([1, 1])];
            tensor<int32, [2]> input_67_dilations_0 = const()[name = tensor<string, []>("input_67_dilations_0"), val = tensor<int32, [2]>([1, 1])];
            tensor<int32, []> input_67_groups_0 = const()[name = tensor<string, []>("input_67_groups_0"), val = tensor<int32, []>(1)];
            tensor<fp16, [32, 32, 3, 3]> cfe_layer0_0_conv2_weight_to_fp16 = const()[name = tensor<string, []>("cfe_layer0_0_conv2_weight_to_fp16"), val = tensor<fp16, [32, 32, 3, 3]>(BLOBFILE(path = tensor<string, []>("@model_path/weights/weight.bin"), offset = tensor<uint64, []>(1186560)))];
            tensor<fp16, [32]> cfe_layer0_0_conv2_bias_to_fp16 = const()[name = tensor<string, []>("cfe_layer0_0_conv2_bias_to_fp16"), val = tensor<fp16, [32]>(BLOBFILE(path = tensor<string, []>("@model_path/weights/weight.bin"), offset = tensor<uint64, []>(1205056)))];
            tensor<fp16, [2, 32, 32, 60]> input_67_cast_fp16 = conv(bias = cfe_layer0_0_conv2_bias_to_fp16, dilations = input_67_dilations_0, groups = input_67_groups_0, pad = input_67_pad_0, pad_type = input_67_pad_type_0, strides = input_67_strides_0, weight = cfe_layer0_0_conv2_weight_to_fp16, x = input_65_cast_fp16)[name = tensor<string, []>("input_67_cast_fp16")];
            tensor<fp16, [2, 32, 32, 60]> out_7_cast_fp16 = leaky_relu(alpha = var_300_to_fp16, x = input_67_cast_fp16)[name = tensor<string, []>("out_7_cast_fp16")];
            tensor<fp16, [2, 32, 32, 60]> input_69_cast_fp16 = add(x = out_7_cast_fp16, y = input_57_cast_fp16)[name = tensor<string, []>("input_69_cast_fp16")];
            tensor<string, []> input_71_pad_type_0 = const()[name = tensor<string, []>("input_71_pad_type_0"), val = tensor<string, []>("valid")];
            tensor<int32, [2]> input_71_strides_0 = const()[name = tensor<string, []>("input_71_strides_0"), val = tensor<int32, [2]>([2, 2])];
            tensor<int32, [4]> input_71_pad_0 = const()[name = tensor<string, []>("input_71_pad_0"), val = tensor<int32, [4]>([0, 0, 0, 0])];
            tensor<int32, [2]> input_71_dilations_0 = const()[name = tensor<string, []>("input_71_dilations_0"), val = tensor<int32, [2]>([1, 1])];
            tensor<int32, []> input_71_groups_0 = const()[name = tensor<string, []>("input_71_groups_0"), val = tensor<int32, []>(1)];
            tensor<fp16, [64, 32, 2, 2]> cfe_layer1_0_weight_to_fp16 = const()[name = tensor<string, []>("cfe_layer1_0_weight_to_fp16"), val = tensor<fp16, [64, 32, 2, 2]>(BLOBFILE(path = tensor<string, []>("@model_path/weights/weight.bin"), offset = tensor<uint64, []>(1205184)))];
            tensor<fp16, [64]> cfe_layer1_0_bias_to_fp16 = const()[name = tensor<string, []>("cfe_layer1_0_bias_to_fp16"), val = tensor<fp16, [64]>(BLOBFILE(path = tensor<string, []>("@model_path/weights/weight.bin"), offset = tensor<uint64, []>(1221632)))];
            tensor<fp16, [2, 64, 16, 30]> input_71_cast_fp16 = conv(bias = cfe_layer1_0_bias_to_fp16, dilations = input_71_dilations_0, groups = input_71_groups_0, pad = input_71_pad_0, pad_type = input_71_pad_type_0, strides = input_71_strides_0, weight = cfe_layer1_0_weight_to_fp16, x = input_69_cast_fp16)[name = tensor<string, []>("input_71_cast_fp16")];
            tensor<fp16, [2, 64, 16, 30]> input_73_cast_fp16 = instance_norm(epsilon = var_303_to_fp16, x = input_71_cast_fp16)[name = tensor<string, []>("input_73_cast_fp16")];
            tensor<string, []> input_75_pad_type_0 = const()[name = tensor<string, []>("input_75_pad_type_0"), val = tensor<string, []>("custom")];
            tensor<int32, [4]> input_75_pad_0 = const()[name = tensor<string, []>("input_75_pad_0"), val = tensor<int32, [4]>([1, 1, 1, 1])];
            tensor<int32, [2]> input_75_strides_0 = const()[name = tensor<string, []>("input_75_strides_0"), val = tensor<int32, [2]>([1, 1])];
            tensor<int32, [2]> input_75_dilations_0 = const()[name = tensor<string, []>("input_75_dilations_0"), val = tensor<int32, [2]>([1, 1])];
            tensor<int32, []> input_75_groups_0 = const()[name = tensor<string, []>("input_75_groups_0"), val = tensor<int32, []>(1)];
            tensor<fp16, [64, 64, 3, 3]> cfe_layer1_1_conv1_weight_to_fp16 = const()[name = tensor<string, []>("cfe_layer1_1_conv1_weight_to_fp16"), val = tensor<fp16, [64, 64, 3, 3]>(BLOBFILE(path = tensor<string, []>("@model_path/weights/weight.bin"), offset = tensor<uint64, []>(1221824)))];
            tensor<fp16, [64]> cfe_layer1_1_conv1_bias_to_fp16 = const()[name = tensor<string, []>("cfe_layer1_1_conv1_bias_to_fp16"), val = tensor<fp16, [64]>(BLOBFILE(path = tensor<string, []>("@model_path/weights/weight.bin"), offset = tensor<uint64, []>(1295616)))];
            tensor<fp16, [2, 64, 16, 30]> input_75_cast_fp16 = conv(bias = cfe_layer1_1_conv1_bias_to_fp16, dilations = input_75_dilations_0, groups = input_75_groups_0, pad = input_75_pad_0, pad_type = input_75_pad_type_0, strides = input_75_strides_0, weight = cfe_layer1_1_conv1_weight_to_fp16, x = input_73_cast_fp16)[name = tensor<string, []>("input_75_cast_fp16")];
            tensor<fp16, [2, 64, 16, 30]> input_77_cast_fp16 = leaky_relu(alpha = var_300_to_fp16, x = input_75_cast_fp16)[name = tensor<string, []>("input_77_cast_fp16")];
            tensor<fp16, [2, 64, 16, 30]> input_79_cast_fp16 = instance_norm(epsilon = var_303_to_fp16, x = input_77_cast_fp16)[name = tensor<string, []>("input_79_cast_fp16")];
            tensor<string, []> input_81_pad_type_0 = const()[name = tensor<string, []>("input_81_pad_type_0"), val = tensor<string, []>("custom")];
            tensor<int32, [4]> input_81_pad_0 = const()[name = tensor<string, []>("input_81_pad_0"), val = tensor<int32, [4]>([1, 1, 1, 1])];
            tensor<int32, [2]> input_81_strides_0 = const()[name = tensor<string, []>("input_81_strides_0"), val = tensor<int32, [2]>([1, 1])];
            tensor<int32, [2]> input_81_dilations_0 = const()[name = tensor<string, []>("input_81_dilations_0"), val = tensor<int32, [2]>([1, 1])];
            tensor<int32, []> input_81_groups_0 = const()[name = tensor<string, []>("input_81_groups_0"), val = tensor<int32, []>(1)];
            tensor<fp16, [64, 64, 3, 3]> cfe_layer1_1_conv2_weight_to_fp16 = const()[name = tensor<string, []>("cfe_layer1_1_conv2_weight_to_fp16"), val = tensor<fp16, [64, 64, 3, 3]>(BLOBFILE(path = tensor<string, []>("@model_path/weights/weight.bin"), offset = tensor<uint64, []>(1295808)))];
            tensor<fp16, [64]> cfe_layer1_1_conv2_bias_to_fp16 = const()[name = tensor<string, []>("cfe_layer1_1_conv2_bias_to_fp16"), val = tensor<fp16, [64]>(BLOBFILE(path = tensor<string, []>("@model_path/weights/weight.bin"), offset = tensor<uint64, []>(1369600)))];
            tensor<fp16, [2, 64, 16, 30]> input_81_cast_fp16 = conv(bias = cfe_layer1_1_conv2_bias_to_fp16, dilations = input_81_dilations_0, groups = input_81_groups_0, pad = input_81_pad_0, pad_type = input_81_pad_type_0, strides = input_81_strides_0, weight = cfe_layer1_1_conv2_weight_to_fp16, x = input_79_cast_fp16)[name = tensor<string, []>("input_81_cast_fp16")];
            tensor<fp16, [2, 64, 16, 30]> out_9_cast_fp16 = leaky_relu(alpha = var_300_to_fp16, x = input_81_cast_fp16)[name = tensor<string, []>("out_9_cast_fp16")];
            tensor<fp16, [2, 64, 16, 30]> input_83_cast_fp16 = add(x = out_9_cast_fp16, y = input_71_cast_fp16)[name = tensor<string, []>("input_83_cast_fp16")];
            tensor<string, []> input_85_pad_type_0 = const()[name = tensor<string, []>("input_85_pad_type_0"), val = tensor<string, []>("valid")];
            tensor<int32, [2]> input_85_strides_0 = const()[name = tensor<string, []>("input_85_strides_0"), val = tensor<int32, [2]>([2, 2])];
            tensor<int32, [4]> input_85_pad_0 = const()[name = tensor<string, []>("input_85_pad_0"), val = tensor<int32, [4]>([0, 0, 0, 0])];
            tensor<int32, [2]> input_85_dilations_0 = const()[name = tensor<string, []>("input_85_dilations_0"), val = tensor<int32, [2]>([1, 1])];
            tensor<int32, []> input_85_groups_0 = const()[name = tensor<string, []>("input_85_groups_0"), val = tensor<int32, []>(1)];
            tensor<fp16, [128, 64, 2, 2]> cfe_layer2_0_weight_to_fp16 = const()[name = tensor<string, []>("cfe_layer2_0_weight_to_fp16"), val = tensor<fp16, [128, 64, 2, 2]>(BLOBFILE(path = tensor<string, []>("@model_path/weights/weight.bin"), offset = tensor<uint64, []>(1369792)))];
            tensor<fp16, [128]> cfe_layer2_0_bias_to_fp16 = const()[name = tensor<string, []>("cfe_layer2_0_bias_to_fp16"), val = tensor<fp16, [128]>(BLOBFILE(path = tensor<string, []>("@model_path/weights/weight.bin"), offset = tensor<uint64, []>(1435392)))];
            tensor<fp16, [2, 128, 8, 15]> input_85_cast_fp16 = conv(bias = cfe_layer2_0_bias_to_fp16, dilations = input_85_dilations_0, groups = input_85_groups_0, pad = input_85_pad_0, pad_type = input_85_pad_type_0, strides = input_85_strides_0, weight = cfe_layer2_0_weight_to_fp16, x = input_83_cast_fp16)[name = tensor<string, []>("input_85_cast_fp16")];
            tensor<fp16, [2, 128, 8, 15]> input_87_cast_fp16 = instance_norm(epsilon = var_303_to_fp16, x = input_85_cast_fp16)[name = tensor<string, []>("input_87_cast_fp16")];
            tensor<string, []> input_89_pad_type_0 = const()[name = tensor<string, []>("input_89_pad_type_0"), val = tensor<string, []>("custom")];
            tensor<int32, [4]> input_89_pad_0 = const()[name = tensor<string, []>("input_89_pad_0"), val = tensor<int32, [4]>([1, 1, 1, 1])];
            tensor<int32, [2]> input_89_strides_0 = const()[name = tensor<string, []>("input_89_strides_0"), val = tensor<int32, [2]>([1, 1])];
            tensor<int32, [2]> input_89_dilations_0 = const()[name = tensor<string, []>("input_89_dilations_0"), val = tensor<int32, [2]>([1, 1])];
            tensor<int32, []> input_89_groups_0 = const()[name = tensor<string, []>("input_89_groups_0"), val = tensor<int32, []>(1)];
            tensor<fp16, [128, 128, 3, 3]> cfe_layer2_1_conv1_weight_to_fp16 = const()[name = tensor<string, []>("cfe_layer2_1_conv1_weight_to_fp16"), val = tensor<fp16, [128, 128, 3, 3]>(BLOBFILE(path = tensor<string, []>("@model_path/weights/weight.bin"), offset = tensor<uint64, []>(1435712)))];
            tensor<fp16, [128]> cfe_layer2_1_conv1_bias_to_fp16 = const()[name = tensor<string, []>("cfe_layer2_1_conv1_bias_to_fp16"), val = tensor<fp16, [128]>(BLOBFILE(path = tensor<string, []>("@model_path/weights/weight.bin"), offset = tensor<uint64, []>(1730688)))];
            tensor<fp16, [2, 128, 8, 15]> input_89_cast_fp16 = conv(bias = cfe_layer2_1_conv1_bias_to_fp16, dilations = input_89_dilations_0, groups = input_89_groups_0, pad = input_89_pad_0, pad_type = input_89_pad_type_0, strides = input_89_strides_0, weight = cfe_layer2_1_conv1_weight_to_fp16, x = input_87_cast_fp16)[name = tensor<string, []>("input_89_cast_fp16")];
            tensor<fp16, [2, 128, 8, 15]> input_91_cast_fp16 = leaky_relu(alpha = var_300_to_fp16, x = input_89_cast_fp16)[name = tensor<string, []>("input_91_cast_fp16")];
            tensor<fp16, [2, 128, 8, 15]> input_93_cast_fp16 = instance_norm(epsilon = var_303_to_fp16, x = input_91_cast_fp16)[name = tensor<string, []>("input_93_cast_fp16")];
            tensor<string, []> input_95_pad_type_0 = const()[name = tensor<string, []>("input_95_pad_type_0"), val = tensor<string, []>("custom")];
            tensor<int32, [4]> input_95_pad_0 = const()[name = tensor<string, []>("input_95_pad_0"), val = tensor<int32, [4]>([1, 1, 1, 1])];
            tensor<int32, [2]> input_95_strides_0 = const()[name = tensor<string, []>("input_95_strides_0"), val = tensor<int32, [2]>([1, 1])];
            tensor<int32, [2]> input_95_dilations_0 = const()[name = tensor<string, []>("input_95_dilations_0"), val = tensor<int32, [2]>([1, 1])];
            tensor<int32, []> input_95_groups_0 = const()[name = tensor<string, []>("input_95_groups_0"), val = tensor<int32, []>(1)];
            tensor<fp16, [128, 128, 3, 3]> cfe_layer2_1_conv2_weight_to_fp16 = const()[name = tensor<string, []>("cfe_layer2_1_conv2_weight_to_fp16"), val = tensor<fp16, [128, 128, 3, 3]>(BLOBFILE(path = tensor<string, []>("@model_path/weights/weight.bin"), offset = tensor<uint64, []>(1731008)))];
            tensor<fp16, [128]> cfe_layer2_1_conv2_bias_to_fp16 = const()[name = tensor<string, []>("cfe_layer2_1_conv2_bias_to_fp16"), val = tensor<fp16, [128]>(BLOBFILE(path = tensor<string, []>("@model_path/weights/weight.bin"), offset = tensor<uint64, []>(2025984)))];
            tensor<fp16, [2, 128, 8, 15]> input_95_cast_fp16 = conv(bias = cfe_layer2_1_conv2_bias_to_fp16, dilations = input_95_dilations_0, groups = input_95_groups_0, pad = input_95_pad_0, pad_type = input_95_pad_type_0, strides = input_95_strides_0, weight = cfe_layer2_1_conv2_weight_to_fp16, x = input_93_cast_fp16)[name = tensor<string, []>("input_95_cast_fp16")];
            tensor<fp16, [2, 128, 8, 15]> out_11_cast_fp16 = leaky_relu(alpha = var_300_to_fp16, x = input_95_cast_fp16)[name = tensor<string, []>("out_11_cast_fp16")];
            tensor<fp16, [2, 128, 8, 15]> input_97_cast_fp16 = add(x = out_11_cast_fp16, y = input_85_cast_fp16)[name = tensor<string, []>("input_97_cast_fp16")];
            tensor<string, []> feat_1_pad_type_0 = const()[name = tensor<string, []>("feat_1_pad_type_0"), val = tensor<string, []>("custom")];
            tensor<int32, [4]> feat_1_pad_0 = const()[name = tensor<string, []>("feat_1_pad_0"), val = tensor<int32, [4]>([1, 1, 1, 1])];
            tensor<int32, [2]> feat_1_strides_0 = const()[name = tensor<string, []>("feat_1_strides_0"), val = tensor<int32, [2]>([1, 1])];
            tensor<int32, [2]> feat_1_dilations_0 = const()[name = tensor<string, []>("feat_1_dilations_0"), val = tensor<int32, [2]>([1, 1])];
            tensor<int32, []> feat_1_groups_0 = const()[name = tensor<string, []>("feat_1_groups_0"), val = tensor<int32, []>(1)];
            tensor<fp16, [128, 128, 3, 3]> cfe_conv_last_weight_to_fp16 = const()[name = tensor<string, []>("cfe_conv_last_weight_to_fp16"), val = tensor<fp16, [128, 128, 3, 3]>(BLOBFILE(path = tensor<string, []>("@model_path/weights/weight.bin"), offset = tensor<uint64, []>(2026304)))];
            tensor<fp16, [128]> cfe_conv_last_bias_to_fp16 = const()[name = tensor<string, []>("cfe_conv_last_bias_to_fp16"), val = tensor<fp16, [128]>(BLOBFILE(path = tensor<string, []>("@model_path/weights/weight.bin"), offset = tensor<uint64, []>(2321280)))];
            tensor<fp16, [2, 128, 8, 15]> feat_1_cast_fp16 = conv(bias = cfe_conv_last_bias_to_fp16, dilations = feat_1_dilations_0, groups = feat_1_groups_0, pad = feat_1_pad_0, pad_type = feat_1_pad_type_0, strides = feat_1_strides_0, weight = cfe_conv_last_weight_to_fp16, x = input_97_cast_fp16)[name = tensor<string, []>("feat_1_cast_fp16")];
            tensor<int32, [2]> var_415_split_sizes_0 = const()[name = tensor<string, []>("op_415_split_sizes_0"), val = tensor<int32, [2]>([1, 1])];
            tensor<int32, []> var_415_axis_0 = const()[name = tensor<string, []>("op_415_axis_0"), val = tensor<int32, []>(0)];
            tensor<fp16, [1, 3, 64, 120]> var_415_cast_fp16_0, tensor<fp16, [1, 3, 64, 120]> var_415_cast_fp16_1 = split(axis = var_415_axis_0, split_sizes = var_415_split_sizes_0, x = input_9_cast_fp16)[name = tensor<string, []>("op_415_cast_fp16")];
            tensor<int32, [2]> var_417_split_sizes_0 = const()[name = tensor<string, []>("op_417_split_sizes_0"), val = tensor<int32, [2]>([1, 1])];
            tensor<int32, []> var_417_axis_0 = const()[name = tensor<string, []>("op_417_axis_0"), val = tensor<int32, []>(0)];
            tensor<fp16, [1, 32, 32, 60]> var_417_cast_fp16_0, tensor<fp16, [1, 32, 32, 60]> var_417_cast_fp16_1 = split(axis = var_417_axis_0, split_sizes = var_417_split_sizes_0, x = input_69_cast_fp16)[name = tensor<string, []>("op_417_cast_fp16")];
            tensor<int32, [2]> var_419_split_sizes_0 = const()[name = tensor<string, []>("op_419_split_sizes_0"), val = tensor<int32, [2]>([1, 1])];
            tensor<int32, []> var_419_axis_0 = const()[name = tensor<string, []>("op_419_axis_0"), val = tensor<int32, []>(0)];
            tensor<fp16, [1, 64, 16, 30]> var_419_cast_fp16_0, tensor<fp16, [1, 64, 16, 30]> var_419_cast_fp16_1 = split(axis = var_419_axis_0, split_sizes = var_419_split_sizes_0, x = input_83_cast_fp16)[name = tensor<string, []>("op_419_cast_fp16")];
            tensor<int32, [2]> var_421_split_sizes_0 = const()[name = tensor<string, []>("op_421_split_sizes_0"), val = tensor<int32, [2]>([1, 1])];
            tensor<int32, []> var_421_axis_0 = const()[name = tensor<string, []>("op_421_axis_0"), val = tensor<int32, []>(0)];
            tensor<fp16, [1, 128, 8, 15]> var_421_cast_fp16_0, tensor<fp16, [1, 128, 8, 15]> var_421_cast_fp16_1 = split(axis = var_421_axis_0, split_sizes = var_421_split_sizes_0, x = feat_1_cast_fp16)[name = tensor<string, []>("op_421_cast_fp16")];
            tensor<int32, [2]> var_423_split_sizes_0 = const()[name = tensor<string, []>("op_423_split_sizes_0"), val = tensor<int32, [2]>([1, 1])];
            tensor<int32, []> var_423_axis_0 = const()[name = tensor<string, []>("op_423_axis_0"), val = tensor<int32, []>(0)];
            tensor<fp16, [1, 128, 8, 15]> var_423_cast_fp16_0, tensor<fp16, [1, 128, 8, 15]> var_423_cast_fp16_1 = split(axis = var_423_axis_0, split_sizes = var_423_split_sizes_0, x = feat_3_cast_fp16)[name = tensor<string, []>("op_423_cast_fp16")];
            tensor<fp16, [1, 1, 8, 15]> fill_0_to_fp16 = const()[name = tensor<string, []>("fill_0_to_fp16"), val = tensor<fp16, [1, 1, 8, 15]>(BLOBFILE(path = tensor<string, []>("@model_path/weights/weight.bin"), offset = tensor<uint64, []>(2321600)))];
            tensor<fp16, [1, 1, 8, 15]> input_173_cast_fp16 = mul(x = fill_0_to_fp16, y = squeeze_0_cast_fp16)[name = tensor<string, []>("input_173_cast_fp16")];
            tensor<fp32, []> var_470_scale_factor_height_0 = const()[name = tensor<string, []>("op_470_scale_factor_height_0"), val = tensor<fp32, []>(0x1p-2)];
            tensor<fp32, []> var_470_scale_factor_width_0 = const()[name = tensor<string, []>("op_470_scale_factor_width_0"), val = tensor<fp32, []>(0x1p-2)];
            tensor<bool, []> var_470_align_corners_0 = const()[name = tensor<string, []>("op_470_align_corners_0"), val = tensor<bool, []>(false)];
            tensor<fp16, [1, 4, 32, 60]> last_flow_1_to_fp16 = const()[name = tensor<string, []>("last_flow_1_to_fp16"), val = tensor<fp16, [1, 4, 32, 60]>(BLOBFILE(path = tensor<string, []>("@model_path/weights/weight.bin"), offset = tensor<uint64, []>(2321920)))];
            tensor<fp16, [1, 4, 8, 15]> var_470_cast_fp16 = upsample_bilinear(align_corners = var_470_align_corners_0, scale_factor_height = var_470_scale_factor_height_0, scale_factor_width = var_470_scale_factor_width_0, x = last_flow_1_to_fp16)[name = tensor<string, []>("op_470_cast_fp16")];
            tensor<fp16, []> var_471_to_fp16 = const()[name = tensor<string, []>("op_471_to_fp16"), val = tensor<fp16, []>(0x1p-2)];
            tensor<fp16, [1, 4, 8, 15]> last_flow_3_cast_fp16 = mul(x = var_470_cast_fp16, y = var_471_to_fp16)[name = tensor<string, []>("last_flow_3_cast_fp16")];
            tensor<fp32, []> var_481_scale_factor_height_0 = const()[name = tensor<string, []>("op_481_scale_factor_height_0"), val = tensor<fp32, []>(0x1p-2)];
            tensor<fp32, []> var_481_scale_factor_width_0 = const()[name = tensor<string, []>("op_481_scale_factor_width_0"), val = tensor<fp32, []>(0x1p-2)];
            tensor<bool, []> var_481_align_corners_0 = const()[name = tensor<string, []>("op_481_align_corners_0"), val = tensor<bool, []>(false)];
            tensor<fp16, [1, 1, 32, 60]> last_occ_to_fp16 = const()[name = tensor<string, []>("last_occ_to_fp16"), val = tensor<fp16, [1, 1, 32, 60]>(BLOBFILE(path = tensor<string, []>("@model_path/weights/weight.bin"), offset = tensor<uint64, []>(2337344)))];
            tensor<fp16, [1, 1, 8, 15]> var_481_cast_fp16 = upsample_bilinear(align_corners = var_481_align_corners_0, scale_factor_height = var_481_scale_factor_height_0, scale_factor_width = var_481_scale_factor_width_0, x = last_occ_to_fp16)[name = tensor<string, []>("op_481_cast_fp16")];
            tensor<int32, []> var_505 = const()[name = tensor<string, []>("op_505"), val = tensor<int32, []>(1)];
            tensor<int32, [4]> tenFlow_1_begin_0 = const()[name = tensor<string, []>("tenFlow_1_begin_0"), val = tensor<int32, [4]>([0, 0, 0, 0])];
            tensor<int32, [4]> tenFlow_1_end_0 = const()[name = tensor<string, []>("tenFlow_1_end_0"), val = tensor<int32, [4]>([1, 2, 8, 15])];
            tensor<bool, [4]> tenFlow_1_end_mask_0 = const()[name = tensor<string, []>("tenFlow_1_end_mask_0"), val = tensor<bool, [4]>([true, false, true, true])];
            tensor<fp16, [1, 2, 8, 15]> tenFlow_1_cast_fp16 = slice_by_index(begin = tenFlow_1_begin_0, end = tenFlow_1_end_0, end_mask = tenFlow_1_end_mask_0, x = last_flow_3_cast_fp16)[name = tensor<string, []>("tenFlow_1_cast_fp16")];
            tensor<fp16, [1, 2, 1, 1]> var_540_to_fp16 = const()[name = tensor<string, []>("op_540_to_fp16"), val = tensor<fp16, [1, 2, 1, 1]>([[[[0x1.248p-3]], [[0x1.248p-2]]]])];
            tensor<fp16, [1, 2, 8, 15]> tenFlow_3_cast_fp16 = mul(x = tenFlow_1_cast_fp16, y = var_540_to_fp16)[name = tensor<string, []>("tenFlow_3_cast_fp16")];
            tensor<fp16, [1, 2, 8, 15]> objBackwarp_1_to_fp16 = const()[name = tensor<string, []>("objBackwarp_1_to_fp16"), val = tensor<fp16, [1, 2, 8, 15]>(BLOBFILE(path = tensor<string, []>("@model_path/weights/weight.bin"), offset = tensor<uint64, []>(2341248)))];
            tensor<fp16, [1, 2, 8, 15]> var_542_cast_fp16 = add(x = objBackwarp_1_to_fp16, y = tenFlow_3_cast_fp16)[name = tensor<string, []>("op_542_cast_fp16")];
            tensor<int32, [4]> var_543 = const()[name = tensor<string, []>("op_543"), val = tensor<int32, [4]>([0, 2, 3, 1])];
            tensor<string, []> x1_1_sampling_mode_0 = const()[name = tensor<string, []>("x1_1_sampling_mode_0"), val = tensor<string, []>("bilinear")];
            tensor<string, []> x1_1_padding_mode_0 = const()[name = tensor<string, []>("x1_1_padding_mode_0"), val = tensor<string, []>("reflection")];
            tensor<string, []> x1_1_coordinates_mode_0 = const()[name = tensor<string, []>("x1_1_coordinates_mode_0"), val = tensor<string, []>("normalized_minus_one_to_one")];
            tensor<bool, []> x1_1_align_corners_0 = const()[name = tensor<string, []>("x1_1_align_corners_0"), val = tensor<bool, []>(true)];
            tensor<fp16, []> x1_1_padding_value_0_to_fp16 = const()[name = tensor<string, []>("x1_1_padding_value_0_to_fp16"), val = tensor<fp16, []>(0x0p+0)];
            tensor<fp16, [1, 8, 15, 2]> grid_1_cast_fp16 = transpose(perm = var_543, x = var_542_cast_fp16)[name = tensor<string, []>("transpose_163")];
            tensor<fp16, [1, 128, 8, 15]> x1_1_cast_fp16 = resample(align_corners = x1_1_align_corners_0, coordinates = grid_1_cast_fp16, coordinates_format = tensor<string, []>("xy"), coordinates_mode = x1_1_coordinates_mode_0, coordinates_type = tensor<string, []>("absolute"), padding_mode = x1_1_padding_mode_0, padding_value = x1_1_padding_value_0_to_fp16, sampling_mode = x1_1_sampling_mode_0, x = var_423_cast_fp16_0)[name = tensor<string, []>("x1_1_cast_fp16")];
            tensor<int32, [4]> tenFlow_5_begin_0 = const()[name = tensor<string, []>("tenFlow_5_begin_0"), val = tensor<int32, [4]>([0, 2, 0, 0])];
            tensor<int32, [4]> tenFlow_5_end_0 = const()[name = tensor<string, []>("tenFlow_5_end_0"), val = tensor<int32, [4]>([1, 4, 8, 15])];
            tensor<bool, [4]> tenFlow_5_end_mask_0 = const()[name = tensor<string, []>("tenFlow_5_end_mask_0"), val = tensor<bool, [4]>([true, true, true, true])];
            tensor<fp16, [1, 2, 8, 15]> tenFlow_5_cast_fp16 = slice_by_index(begin = tenFlow_5_begin_0, end = tenFlow_5_end_0, end_mask = tenFlow_5_end_mask_0, x = last_flow_3_cast_fp16)[name = tensor<string, []>("tenFlow_5_cast_fp16")];
            tensor<fp16, [1, 2, 1, 1]> var_567_to_fp16 = const()[name = tensor<string, []>("op_567_to_fp16"), val = tensor<fp16, [1, 2, 1, 1]>([[[[0x1.248p-3]], [[0x1.248p-2]]]])];
            tensor<fp16, [1, 2, 8, 15]> tenFlow_7_cast_fp16 = mul(x = tenFlow_5_cast_fp16, y = var_567_to_fp16)[name = tensor<string, []>("tenFlow_7_cast_fp16")];
            tensor<fp16, [1, 2, 8, 15]> var_569_cast_fp16 = add(x = objBackwarp_1_to_fp16, y = tenFlow_7_cast_fp16)[name = tensor<string, []>("op_569_cast_fp16")];
            tensor<int32, [4]> var_570 = const()[name = tensor<string, []>("op_570"), val = tensor<int32, [4]>([0, 2, 3, 1])];
            tensor<string, []> x_25_sampling_mode_0 = const()[name = tensor<string, []>("x_25_sampling_mode_0"), val = tensor<string, []>("bilinear")];
            tensor<string, []> x_25_padding_mode_0 = const()[name = tensor<string, []>("x_25_padding_mode_0"), val = tensor<string, []>("reflection")];
            tensor<string, []> x_25_coordinates_mode_0 = const()[name = tensor<string, []>("x_25_coordinates_mode_0"), val = tensor<string, []>("normalized_minus_one_to_one")];
            tensor<bool, []> x_25_align_corners_0 = const()[name = tensor<string, []>("x_25_align_corners_0"), val = tensor<bool, []>(true)];
            tensor<fp16, []> x_25_padding_value_0_to_fp16 = const()[name = tensor<string, []>("x_25_padding_value_0_to_fp16"), val = tensor<fp16, []>(0x0p+0)];
            tensor<fp16, [1, 8, 15, 2]> grid_3_cast_fp16 = transpose(perm = var_570, x = var_569_cast_fp16)[name = tensor<string, []>("transpose_162")];
            tensor<fp16, [1, 128, 8, 15]> x_25_cast_fp16 = resample(align_corners = x_25_align_corners_0, coordinates = grid_3_cast_fp16, coordinates_format = tensor<string, []>("xy"), coordinates_mode = x_25_coordinates_mode_0, coordinates_type = tensor<string, []>("absolute"), padding_mode = x_25_padding_mode_0, padding_value = x_25_padding_value_0_to_fp16, sampling_mode = x_25_sampling_mode_0, x = var_423_cast_fp16_1)[name = tensor<string, []>("x_25_cast_fp16")];
            tensor<string, []> x1__1_pad_type_0 = const()[name = tensor<string, []>("x1__1_pad_type_0"), val = tensor<string, []>("valid")];
            tensor<int32, [2]> x1__1_strides_0 = const()[name = tensor<string, []>("x1__1_strides_0"), val = tensor<int32, [2]>([1, 1])];
            tensor<int32, [4]> x1__1_pad_0 = const()[name = tensor<string, []>("x1__1_pad_0"), val = tensor<int32, [4]>([0, 0, 0, 0])];
            tensor<int32, [2]> x1__1_dilations_0 = const()[name = tensor<string, []>("x1__1_dilations_0"), val = tensor<int32, [2]>([1, 1])];
            tensor<int32, []> x1__1_groups_0 = const()[name = tensor<string, []>("x1__1_groups_0"), val = tensor<int32, []>(1)];
            tensor<fp16, [1, 128, 1, 1]> weight_41_to_fp16 = const()[name = tensor<string, []>("weight_41_to_fp16"), val = tensor<fp16, [1, 128, 1, 1]>(BLOBFILE(path = tensor<string, []>("@model_path/weights/weight.bin"), offset = tensor<uint64, []>(2341824)))];
            tensor<fp16, [1, 1, 8, 15]> x1__1_cast_fp16 = conv(dilations = x1__1_dilations_0, groups = x1__1_groups_0, pad = x1__1_pad_0, pad_type = x1__1_pad_type_0, strides = x1__1_strides_0, weight = weight_41_to_fp16, x = x1_1_cast_fp16)[name = tensor<string, []>("x1__1_cast_fp16")];
            tensor<string, []> x_27_pad_type_0 = const()[name = tensor<string, []>("x_27_pad_type_0"), val = tensor<string, []>("valid")];
            tensor<int32, [2]> x_27_strides_0 = const()[name = tensor<string, []>("x_27_strides_0"), val = tensor<int32, [2]>([1, 1])];
            tensor<int32, [4]> x_27_pad_0 = const()[name = tensor<string, []>("x_27_pad_0"), val = tensor<int32, [4]>([0, 0, 0, 0])];
            tensor<int32, [2]> x_27_dilations_0 = const()[name = tensor<string, []>("x_27_dilations_0"), val = tensor<int32, [2]>([1, 1])];
            tensor<int32, []> x_27_groups_0 = const()[name = tensor<string, []>("x_27_groups_0"), val = tensor<int32, []>(1)];
            tensor<fp16, [1, 1, 8, 15]> x_27_cast_fp16 = conv(dilations = x_27_dilations_0, groups = x_27_groups_0, pad = x_27_pad_0, pad_type = x_27_pad_type_0, strides = x_27_strides_0, weight = weight_41_to_fp16, x = x_25_cast_fp16)[name = tensor<string, []>("x_27_cast_fp16")];
            tensor<int32, [8]> x_padded_1_pad_0 = const()[name = tensor<string, []>("x_padded_1_pad_0"), val = tensor<int32, [8]>([0, 0, 0, 0, 2, 2, 2, 2])];
            tensor<string, []> x_padded_1_mode_0 = const()[name = tensor<string, []>("x_padded_1_mode_0"), val = tensor<string, []>("constant")];
            tensor<fp16, []> const_29_to_fp16 = const()[name = tensor<string, []>("const_29_to_fp16"), val = tensor<fp16, []>(0x0p+0)];
            tensor<fp16, [1, 1, 12, 19]> x_padded_1_cast_fp16 = pad(constant_val = const_29_to_fp16, mode = x_padded_1_mode_0, pad = x_padded_1_pad_0, x = x_27_cast_fp16)[name = tensor<string, []>("x_padded_1_cast_fp16")];
            tensor<string, []> patch_1_pad_type_0 = const()[name = tensor<string, []>("patch_1_pad_type_0"), val = tensor<string, []>("valid")];
            tensor<int32, [2]> patch_1_strides_0 = const()[name = tensor<string, []>("patch_1_strides_0"), val = tensor<int32, [2]>([1, 1])];
            tensor<int32, [4]> patch_1_pad_0 = const()[name = tensor<string, []>("patch_1_pad_0"), val = tensor<int32, [4]>([0, 0, 0, 0])];
            tensor<int32, [2]> patch_1_dilations_0 = const()[name = tensor<string, []>("patch_1_dilations_0"), val = tensor<int32, [2]>([1, 1])];
            tensor<int32, []> patch_1_groups_0 = const()[name = tensor<string, []>("patch_1_groups_0"), val = tensor<int32, []>(1)];
            tensor<fp16, [25, 1, 5, 5]> const_28_to_fp16 = const()[name = tensor<string, []>("const_28_to_fp16"), val = tensor<fp16, [25, 1, 5, 5]>(BLOBFILE(path = tensor<string, []>("@model_path/weights/weight.bin"), offset = tensor<uint64, []>(2342144)))];
            tensor<fp16, [1, 25, 8, 15]> patch_1_cast_fp16 = conv(dilations = patch_1_dilations_0, groups = patch_1_groups_0, pad = patch_1_pad_0, pad_type = patch_1_pad_type_0, strides = patch_1_strides_0, weight = const_28_to_fp16, x = x_padded_1_cast_fp16)[name = tensor<string, []>("patch_1_cast_fp16")];
            tensor<fp16, [1, 25, 8, 15]> cost_1_cast_fp16 = sub(x = x1__1_cast_fp16, y = patch_1_cast_fp16)[name = tensor<string, []>("cost_1_cast_fp16")];
            tensor<int32, [8]> x_padded_3_pad_0 = const()[name = tensor<string, []>("x_padded_3_pad_0"), val = tensor<int32, [8]>([0, 0, 0, 0, 2, 2, 2, 2])];
            tensor<string, []> x_padded_3_mode_0 = const()[name = tensor<string, []>("x_padded_3_mode_0"), val = tensor<string, []>("constant")];
            tensor<fp16, []> const_37_to_fp16 = const()[name = tensor<string, []>("const_37_to_fp16"), val = tensor<fp16, []>(0x0p+0)];
            tensor<fp16, [1, 1, 12, 19]> x_padded_3_cast_fp16 = pad(constant_val = const_37_to_fp16, mode = x_padded_3_mode_0, pad = x_padded_3_pad_0, x = x1__1_cast_fp16)[name = tensor<string, []>("x_padded_3_cast_fp16")];
            tensor<string, []> patch_3_pad_type_0 = const()[name = tensor<string, []>("patch_3_pad_type_0"), val = tensor<string, []>("valid")];
            tensor<int32, [2]> patch_3_strides_0 = const()[name = tensor<string, []>("patch_3_strides_0"), val = tensor<int32, [2]>([1, 1])];
            tensor<int32, [4]> patch_3_pad_0 = const()[name = tensor<string, []>("patch_3_pad_0"), val = tensor<int32, [4]>([0, 0, 0, 0])];
            tensor<int32, [2]> patch_3_dilations_0 = const()[name = tensor<string, []>("patch_3_dilations_0"), val = tensor<int32, [2]>([1, 1])];
            tensor<int32, []> patch_3_groups_0 = const()[name = tensor<string, []>("patch_3_groups_0"), val = tensor<int32, []>(1)];
            tensor<fp16, [1, 25, 8, 15]> patch_3_cast_fp16 = conv(dilations = patch_3_dilations_0, groups = patch_3_groups_0, pad = patch_3_pad_0, pad_type = patch_3_pad_type_0, strides = patch_3_strides_0, weight = const_28_to_fp16, x = x_padded_3_cast_fp16)[name = tensor<string, []>("patch_3_cast_fp16")];
            tensor<fp16, [1, 25, 8, 15]> cost_3_cast_fp16 = sub(x = x_27_cast_fp16, y = patch_3_cast_fp16)[name = tensor<string, []>("cost_3_cast_fp16")];
            tensor<fp16, []> var_487_to_fp16 = const()[name = tensor<string, []>("op_487_to_fp16"), val = tensor<fp16, []>(0x1.998p-4)];
            tensor<fp16, [1, 25, 8, 15]> input_107_cast_fp16 = leaky_relu(alpha = var_487_to_fp16, x = cost_1_cast_fp16)[name = tensor<string, []>("input_107_cast_fp16")];
            tensor<string, []> input_109_pad_type_0 = const()[name = tensor<string, []>("input_109_pad_type_0"), val = tensor<string, []>("valid")];
            tensor<int32, [2]> input_109_strides_0 = const()[name = tensor<string, []>("input_109_strides_0"), val = tensor<int32, [2]>([1, 1])];
            tensor<int32, [4]> input_109_pad_0 = const()[name = tensor<string, []>("input_109_pad_0"), val = tensor<int32, [4]>([0, 0, 0, 0])];
            tensor<int32, [2]> input_109_dilations_0 = const()[name = tensor<string, []>("input_109_dilations_0"), val = tensor<int32, [2]>([1, 1])];
            tensor<int32, []> input_109_groups_0 = const()[name = tensor<string, []>("input_109_groups_0"), val = tensor<int32, []>(1)];
            tensor<fp16, [64, 25, 1, 1]> bimfn_conv_corr_1_weight_to_fp16 = const()[name = tensor<string, []>("bimfn_conv_corr_1_weight_to_fp16"), val = tensor<fp16, [64, 25, 1, 1]>(BLOBFILE(path = tensor<string, []>("@model_path/weights/weight.bin"), offset = tensor<uint64, []>(2343488)))];
            tensor<fp16, [64]> bimfn_conv_corr_1_bias_to_fp16 = const()[name = tensor<string, []>("bimfn_conv_corr_1_bias_to_fp16"), val = tensor<fp16, [64]>(BLOBFILE(path = tensor<string, []>("@model_path/weights/weight.bin"), offset = tensor<uint64, []>(2346752)))];
            tensor<fp16, [1, 64, 8, 15]> input_109_cast_fp16 = conv(bias = bimfn_conv_corr_1_bias_to_fp16, dilations = input_109_dilations_0, groups = input_109_groups_0, pad = input_109_pad_0, pad_type = input_109_pad_type_0, strides = input_109_strides_0, weight = bimfn_conv_corr_1_weight_to_fp16, x = input_107_cast_fp16)[name = tensor<string, []>("input_109_cast_fp16")];
            tensor<fp16, [64]> input_111_alpha_0_to_fp16 = const()[name = tensor<string, []>("input_111_alpha_0_to_fp16"), val = tensor<fp16, [64]>(BLOBFILE(path = tensor<string, []>("@model_path/weights/weight.bin"), offset = tensor<uint64, []>(2346944)))];
            tensor<fp16, [1, 64, 8, 15]> input_111_cast_fp16 = prelu(alpha = input_111_alpha_0_to_fp16, x = input_109_cast_fp16)[name = tensor<string, []>("input_111_cast_fp16")];
            tensor<string, []> input_113_pad_type_0 = const()[name = tensor<string, []>("input_113_pad_type_0"), val = tensor<string, []>("custom")];
            tensor<int32, [4]> input_113_pad_0 = const()[name = tensor<string, []>("input_113_pad_0"), val = tensor<int32, [4]>([1, 1, 1, 1])];
            tensor<int32, [2]> input_113_strides_0 = const()[name = tensor<string, []>("input_113_strides_0"), val = tensor<int32, [2]>([1, 1])];
            tensor<int32, [2]> input_113_dilations_0 = const()[name = tensor<string, []>("input_113_dilations_0"), val = tensor<int32, [2]>([1, 1])];
            tensor<int32, []> input_113_groups_0 = const()[name = tensor<string, []>("input_113_groups_0"), val = tensor<int32, []>(1)];
            tensor<fp16, [64, 64, 3, 3]> bimfn_conv_corr_3_weight_to_fp16 = const()[name = tensor<string, []>("bimfn_conv_corr_3_weight_to_fp16"), val = tensor<fp16, [64, 64, 3, 3]>(BLOBFILE(path = tensor<string, []>("@model_path/weights/weight.bin"), offset = tensor<uint64, []>(2347136)))];
            tensor<fp16, [64]> bimfn_conv_corr_3_bias_to_fp16 = const()[name = tensor<string, []>("bimfn_conv_corr_3_bias_to_fp16"), val = tensor<fp16, [64]>(BLOBFILE(path = tensor<string, []>("@model_path/weights/weight.bin"), offset = tensor<uint64, []>(2420928)))];
            tensor<fp16, [1, 64, 8, 15]> input_113_cast_fp16 = conv(bias = bimfn_conv_corr_3_bias_to_fp16, dilations = input_113_dilations_0, groups = input_113_groups_0, pad = input_113_pad_0, pad_type = input_113_pad_type_0, strides = input_113_strides_0, weight = bimfn_conv_corr_3_weight_to_fp16, x = input_111_cast_fp16)[name = tensor<string, []>("input_113_cast_fp16")];
            tensor<fp16, [64]> corr0_1_alpha_0_to_fp16 = const()[name = tensor<string, []>("corr0_1_alpha_0_to_fp16"), val = tensor<fp16, [64]>(BLOBFILE(path = tensor<string, []>("@model_path/weights/weight.bin"), offset = tensor<uint64, []>(2421120)))];
            tensor<fp16, [1, 64, 8, 15]> corr0_1_cast_fp16 = prelu(alpha = corr0_1_alpha_0_to_fp16, x = input_113_cast_fp16)[name = tensor<string, []>("corr0_1_cast_fp16")];
            tensor<fp16, [1, 25, 8, 15]> input_117_cast_fp16 = leaky_relu(alpha = var_487_to_fp16, x = cost_3_cast_fp16)[name = tensor<string, []>("input_117_cast_fp16")];
            tensor<string, []> input_119_pad_type_0 = const()[name = tensor<string, []>("input_119_pad_type_0"), val = tensor<string, []>("valid")];
            tensor<int32, [2]> input_119_strides_0 = const()[name = tensor<string, []>("input_119_strides_0"), val = tensor<int32, [2]>([1, 1])];
            tensor<int32, [4]> input_119_pad_0 = const()[name = tensor<string, []>("input_119_pad_0"), val = tensor<int32, [4]>([0, 0, 0, 0])];
            tensor<int32, [2]> input_119_dilations_0 = const()[name = tensor<string, []>("input_119_dilations_0"), val = tensor<int32, [2]>([1, 1])];
            tensor<int32, []> input_119_groups_0 = const()[name = tensor<string, []>("input_119_groups_0"), val = tensor<int32, []>(1)];
            tensor<fp16, [1, 64, 8, 15]> input_119_cast_fp16 = conv(bias = bimfn_conv_corr_1_bias_to_fp16, dilations = input_119_dilations_0, groups = input_119_groups_0, pad = input_119_pad_0, pad_type = input_119_pad_type_0, strides = input_119_strides_0, weight = bimfn_conv_corr_1_weight_to_fp16, x = input_117_cast_fp16)[name = tensor<string, []>("input_119_cast_fp16")];
            tensor<fp16, [64]> input_121_alpha_0_to_fp16 = const()[name = tensor<string, []>("input_121_alpha_0_to_fp16"), val = tensor<fp16, [64]>(BLOBFILE(path = tensor<string, []>("@model_path/weights/weight.bin"), offset = tensor<uint64, []>(2421312)))];
            tensor<fp16, [1, 64, 8, 15]> input_121_cast_fp16 = prelu(alpha = input_121_alpha_0_to_fp16, x = input_119_cast_fp16)[name = tensor<string, []>("input_121_cast_fp16")];
            tensor<string, []> input_123_pad_type_0 = const()[name = tensor<string, []>("input_123_pad_type_0"), val = tensor<string, []>("custom")];
            tensor<int32, [4]> input_123_pad_0 = const()[name = tensor<string, []>("input_123_pad_0"), val = tensor<int32, [4]>([1, 1, 1, 1])];
            tensor<int32, [2]> input_123_strides_0 = const()[name = tensor<string, []>("input_123_strides_0"), val = tensor<int32, [2]>([1, 1])];
            tensor<int32, [2]> input_123_dilations_0 = const()[name = tensor<string, []>("input_123_dilations_0"), val = tensor<int32, [2]>([1, 1])];
            tensor<int32, []> input_123_groups_0 = const()[name = tensor<string, []>("input_123_groups_0"), val = tensor<int32, []>(1)];
            tensor<fp16, [1, 64, 8, 15]> input_123_cast_fp16 = conv(bias = bimfn_conv_corr_3_bias_to_fp16, dilations = input_123_dilations_0, groups = input_123_groups_0, pad = input_123_pad_0, pad_type = input_123_pad_type_0, strides = input_123_strides_0, weight = bimfn_conv_corr_3_weight_to_fp16, x = input_121_cast_fp16)[name = tensor<string, []>("input_123_cast_fp16")];
            tensor<fp16, [64]> corr1_1_alpha_0_to_fp16 = const()[name = tensor<string, []>("corr1_1_alpha_0_to_fp16"), val = tensor<fp16, [64]>(BLOBFILE(path = tensor<string, []>("@model_path/weights/weight.bin"), offset = tensor<uint64, []>(2421504)))];
            tensor<fp16, [1, 64, 8, 15]> corr1_1_cast_fp16 = prelu(alpha = corr1_1_alpha_0_to_fp16, x = input_123_cast_fp16)[name = tensor<string, []>("corr1_1_cast_fp16")];
            tensor<string, []> input_127_pad_type_0 = const()[name = tensor<string, []>("input_127_pad_type_0"), val = tensor<string, []>("custom")];
            tensor<int32, [4]> input_127_pad_0 = const()[name = tensor<string, []>("input_127_pad_0"), val = tensor<int32, [4]>([3, 3, 3, 3])];
            tensor<int32, [2]> input_127_strides_0 = const()[name = tensor<string, []>("input_127_strides_0"), val = tensor<int32, [2]>([1, 1])];
            tensor<int32, [2]> input_127_dilations_0 = const()[name = tensor<string, []>("input_127_dilations_0"), val = tensor<int32, [2]>([1, 1])];
            tensor<int32, []> input_127_groups_0 = const()[name = tensor<string, []>("input_127_groups_0"), val = tensor<int32, []>(1)];
            tensor<fp16, [64, 2, 7, 7]> bimfn_conv_flow_0_weight_to_fp16 = const()[name = tensor<string, []>("bimfn_conv_flow_0_weight_to_fp16"), val = tensor<fp16, [64, 2, 7, 7]>(BLOBFILE(path = tensor<string, []>("@model_path/weights/weight.bin"), offset = tensor<uint64, []>(2421696)))];
            tensor<fp16, [64]> bimfn_conv_flow_0_bias_to_fp16 = const()[name = tensor<string, []>("bimfn_conv_flow_0_bias_to_fp16"), val = tensor<fp16, [64]>(BLOBFILE(path = tensor<string, []>("@model_path/weights/weight.bin"), offset = tensor<uint64, []>(2434304)))];
            tensor<fp16, [1, 64, 8, 15]> input_127_cast_fp16 = conv(bias = bimfn_conv_flow_0_bias_to_fp16, dilations = input_127_dilations_0, groups = input_127_groups_0, pad = input_127_pad_0, pad_type = input_127_pad_type_0, strides = input_127_strides_0, weight = bimfn_conv_flow_0_weight_to_fp16, x = tenFlow_1_cast_fp16)[name = tensor<string, []>("input_127_cast_fp16")];
            tensor<fp16, [64]> input_129_alpha_0_to_fp16 = const()[name = tensor<string, []>("input_129_alpha_0_to_fp16"), val = tensor<fp16, [64]>(BLOBFILE(path = tensor<string, []>("@model_path/weights/weight.bin"), offset = tensor<uint64, []>(2434496)))];
            tensor<fp16, [1, 64, 8, 15]> input_129_cast_fp16 = prelu(alpha = input_129_alpha_0_to_fp16, x = input_127_cast_fp16)[name = tensor<string, []>("input_129_cast_fp16")];
            tensor<string, []> input_131_pad_type_0 = const()[name = tensor<string, []>("input_131_pad_type_0"), val = tensor<string, []>("custom")];
            tensor<int32, [4]> input_131_pad_0 = const()[name = tensor<string, []>("input_131_pad_0"), val = tensor<int32, [4]>([1, 1, 1, 1])];
            tensor<int32, [2]> input_131_strides_0 = const()[name = tensor<string, []>("input_131_strides_0"), val = tensor<int32, [2]>([1, 1])];
            tensor<int32, [2]> input_131_dilations_0 = const()[name = tensor<string, []>("input_131_dilations_0"), val = tensor<int32, [2]>([1, 1])];
            tensor<int32, []> input_131_groups_0 = const()[name = tensor<string, []>("input_131_groups_0"), val = tensor<int32, []>(1)];
            tensor<fp16, [64, 64, 3, 3]> bimfn_conv_flow_2_weight_to_fp16 = const()[name = tensor<string, []>("bimfn_conv_flow_2_weight_to_fp16"), val = tensor<fp16, [64, 64, 3, 3]>(BLOBFILE(path = tensor<string, []>("@model_path/weights/weight.bin"), offset = tensor<uint64, []>(2434688)))];
            tensor<fp16, [64]> bimfn_conv_flow_2_bias_to_fp16 = const()[name = tensor<string, []>("bimfn_conv_flow_2_bias_to_fp16"), val = tensor<fp16, [64]>(BLOBFILE(path = tensor<string, []>("@model_path/weights/weight.bin"), offset = tensor<uint64, []>(2508480)))];
            tensor<fp16, [1, 64, 8, 15]> input_131_cast_fp16 = conv(bias = bimfn_conv_flow_2_bias_to_fp16, dilations = input_131_dilations_0, groups = input_131_groups_0, pad = input_131_pad_0, pad_type = input_131_pad_type_0, strides = input_131_strides_0, weight = bimfn_conv_flow_2_weight_to_fp16, x = input_129_cast_fp16)[name = tensor<string, []>("input_131_cast_fp16")];
            tensor<fp16, [64]> flo0_1_alpha_0_to_fp16 = const()[name = tensor<string, []>("flo0_1_alpha_0_to_fp16"), val = tensor<fp16, [64]>(BLOBFILE(path = tensor<string, []>("@model_path/weights/weight.bin"), offset = tensor<uint64, []>(2508672)))];
            tensor<fp16, [1, 64, 8, 15]> flo0_1_cast_fp16 = prelu(alpha = flo0_1_alpha_0_to_fp16, x = input_131_cast_fp16)[name = tensor<string, []>("flo0_1_cast_fp16")];
            tensor<string, []> input_135_pad_type_0 = const()[name = tensor<string, []>("input_135_pad_type_0"), val = tensor<string, []>("custom")];
            tensor<int32, [4]> input_135_pad_0 = const()[name = tensor<string, []>("input_135_pad_0"), val = tensor<int32, [4]>([3, 3, 3, 3])];
            tensor<int32, [2]> input_135_strides_0 = const()[name = tensor<string, []>("input_135_strides_0"), val = tensor<int32, [2]>([1, 1])];
            tensor<int32, [2]> input_135_dilations_0 = const()[name = tensor<string, []>("input_135_dilations_0"), val = tensor<int32, [2]>([1, 1])];
            tensor<int32, []> input_135_groups_0 = const()[name = tensor<string, []>("input_135_groups_0"), val = tensor<int32, []>(1)];
            tensor<fp16, [1, 64, 8, 15]> input_135_cast_fp16 = conv(bias = bimfn_conv_flow_0_bias_to_fp16, dilations = input_135_dilations_0, groups = input_135_groups_0, pad = input_135_pad_0, pad_type = input_135_pad_type_0, strides = input_135_strides_0, weight = bimfn_conv_flow_0_weight_to_fp16, x = tenFlow_5_cast_fp16)[name = tensor<string, []>("input_135_cast_fp16")];
            tensor<fp16, [64]> input_137_alpha_0_to_fp16 = const()[name = tensor<string, []>("input_137_alpha_0_to_fp16"), val = tensor<fp16, [64]>(BLOBFILE(path = tensor<string, []>("@model_path/weights/weight.bin"), offset = tensor<uint64, []>(2508864)))];
            tensor<fp16, [1, 64, 8, 15]> input_137_cast_fp16 = prelu(alpha = input_137_alpha_0_to_fp16, x = input_135_cast_fp16)[name = tensor<string, []>("input_137_cast_fp16")];
            tensor<string, []> input_139_pad_type_0 = const()[name = tensor<string, []>("input_139_pad_type_0"), val = tensor<string, []>("custom")];
            tensor<int32, [4]> input_139_pad_0 = const()[name = tensor<string, []>("input_139_pad_0"), val = tensor<int32, [4]>([1, 1, 1, 1])];
            tensor<int32, [2]> input_139_strides_0 = const()[name = tensor<string, []>("input_139_strides_0"), val = tensor<int32, [2]>([1, 1])];
            tensor<int32, [2]> input_139_dilations_0 = const()[name = tensor<string, []>("input_139_dilations_0"), val = tensor<int32, [2]>([1, 1])];
            tensor<int32, []> input_139_groups_0 = const()[name = tensor<string, []>("input_139_groups_0"), val = tensor<int32, []>(1)];
            tensor<fp16, [1, 64, 8, 15]> input_139_cast_fp16 = conv(bias = bimfn_conv_flow_2_bias_to_fp16, dilations = input_139_dilations_0, groups = input_139_groups_0, pad = input_139_pad_0, pad_type = input_139_pad_type_0, strides = input_139_strides_0, weight = bimfn_conv_flow_2_weight_to_fp16, x = input_137_cast_fp16)[name = tensor<string, []>("input_139_cast_fp16")];
            tensor<fp16, [64]> flo1_1_alpha_0_to_fp16 = const()[name = tensor<string, []>("flo1_1_alpha_0_to_fp16"), val = tensor<fp16, [64]>(BLOBFILE(path = tensor<string, []>("@model_path/weights/weight.bin"), offset = tensor<uint64, []>(2509056)))];
            tensor<fp16, [1, 64, 8, 15]> flo1_1_cast_fp16 = prelu(alpha = flo1_1_alpha_0_to_fp16, x = input_139_cast_fp16)[name = tensor<string, []>("flo1_1_cast_fp16")];
            tensor<string, []> input_143_pad_type_0 = const()[name = tensor<string, []>("input_143_pad_type_0"), val = tensor<string, []>("custom")];
            tensor<int32, [4]> input_143_pad_0 = const()[name = tensor<string, []>("input_143_pad_0"), val = tensor<int32, [4]>([3, 3, 3, 3])];
            tensor<int32, [2]> input_143_strides_0 = const()[name = tensor<string, []>("input_143_strides_0"), val = tensor<int32, [2]>([1, 1])];
            tensor<int32, [2]> input_143_dilations_0 = const()[name = tensor<string, []>("input_143_dilations_0"), val = tensor<int32, [2]>([1, 1])];
            tensor<int32, []> input_143_groups_0 = const()[name = tensor<string, []>("input_143_groups_0"), val = tensor<int32, []>(1)];
            tensor<fp16, [64, 1, 7, 7]> bimfn_conv_occ_0_weight_to_fp16 = const()[name = tensor<string, []>("bimfn_conv_occ_0_weight_to_fp16"), val = tensor<fp16, [64, 1, 7, 7]>(BLOBFILE(path = tensor<string, []>("@model_path/weights/weight.bin"), offset = tensor<uint64, []>(2509248)))];
            tensor<fp16, [64]> bimfn_conv_occ_0_bias_to_fp16 = const()[name = tensor<string, []>("bimfn_conv_occ_0_bias_to_fp16"), val = tensor<fp16, [64]>(BLOBFILE(path = tensor<string, []>("@model_path/weights/weight.bin"), offset = tensor<uint64, []>(2515584)))];
            tensor<fp16, [1, 64, 8, 15]> input_143_cast_fp16 = conv(bias = bimfn_conv_occ_0_bias_to_fp16, dilations = input_143_dilations_0, groups = input_143_groups_0, pad = input_143_pad_0, pad_type = input_143_pad_type_0, strides = input_143_strides_0, weight = bimfn_conv_occ_0_weight_to_fp16, x = var_481_cast_fp16)[name = tensor<string, []>("input_143_cast_fp16")];
            tensor<fp16, [64]> input_145_alpha_0_to_fp16 = const()[name = tensor<string, []>("input_145_alpha_0_to_fp16"), val = tensor<fp16, [64]>(BLOBFILE(path = tensor<string, []>("@model_path/weights/weight.bin"), offset = tensor<uint64, []>(2515776)))];
            tensor<fp16, [1, 64, 8, 15]> input_145_cast_fp16 = prelu(alpha = input_145_alpha_0_to_fp16, x = input_143_cast_fp16)[name = tensor<string, []>("input_145_cast_fp16")];
            tensor<string, []> input_147_pad_type_0 = const()[name = tensor<string, []>("input_147_pad_type_0"), val = tensor<string, []>("custom")];
            tensor<int32, [4]> input_147_pad_0 = const()[name = tensor<string, []>("input_147_pad_0"), val = tensor<int32, [4]>([1, 1, 1, 1])];
            tensor<int32, [2]> input_147_strides_0 = const()[name = tensor<string, []>("input_147_strides_0"), val = tensor<int32, [2]>([1, 1])];
            tensor<int32, [2]> input_147_dilations_0 = const()[name = tensor<string, []>("input_147_dilations_0"), val = tensor<int32, [2]>([1, 1])];
            tensor<int32, []> input_147_groups_0 = const()[name = tensor<string, []>("input_147_groups_0"), val = tensor<int32, []>(1)];
            tensor<fp16, [64, 64, 3, 3]> bimfn_conv_occ_2_weight_to_fp16 = const()[name = tensor<string, []>("bimfn_conv_occ_2_weight_to_fp16"), val = tensor<fp16, [64, 64, 3, 3]>(BLOBFILE(path = tensor<string, []>("@model_path/weights/weight.bin"), offset = tensor<uint64, []>(2515968)))];
            tensor<fp16, [64]> bimfn_conv_occ_2_bias_to_fp16 = const()[name = tensor<string, []>("bimfn_conv_occ_2_bias_to_fp16"), val = tensor<fp16, [64]>(BLOBFILE(path = tensor<string, []>("@model_path/weights/weight.bin"), offset = tensor<uint64, []>(2589760)))];
            tensor<fp16, [1, 64, 8, 15]> input_147_cast_fp16 = conv(bias = bimfn_conv_occ_2_bias_to_fp16, dilations = input_147_dilations_0, groups = input_147_groups_0, pad = input_147_pad_0, pad_type = input_147_pad_type_0, strides = input_147_strides_0, weight = bimfn_conv_occ_2_weight_to_fp16, x = input_145_cast_fp16)[name = tensor<string, []>("input_147_cast_fp16")];
            tensor<fp16, [64]> occ_1_alpha_0_to_fp16 = const()[name = tensor<string, []>("occ_1_alpha_0_to_fp16"), val = tensor<fp16, [64]>(BLOBFILE(path = tensor<string, []>("@model_path/weights/weight.bin"), offset = tensor<uint64, []>(2589952)))];
            tensor<fp16, [1, 64, 8, 15]> occ_1_cast_fp16 = prelu(alpha = occ_1_alpha_0_to_fp16, x = input_147_cast_fp16)[name = tensor<string, []>("occ_1_cast_fp16")];
            tensor<bool, []> input_149_interleave_0 = const()[name = tensor<string, []>("input_149_interleave_0"), val = tensor<bool, []>(false)];
            tensor<fp16, [1, 576, 8, 15]> input_149_cast_fp16 = concat(axis = var_505, interleave = input_149_interleave_0, values = (corr0_1_cast_fp16, corr1_1_cast_fp16, x1_1_cast_fp16, x_25_cast_fp16, flo0_1_cast_fp16, flo1_1_cast_fp16, occ_1_cast_fp16))[name = tensor<string, []>("input_149_cast_fp16")];
            tensor<string, []> input_151_pad_type_0 = const()[name = tensor<string, []>("input_151_pad_type_0"), val = tensor<string, []>("valid")];
            tensor<int32, [2]> input_151_strides_0 = const()[name = tensor<string, []>("input_151_strides_0"), val = tensor<int32, [2]>([1, 1])];
            tensor<int32, [4]> input_151_pad_0 = const()[name = tensor<string, []>("input_151_pad_0"), val = tensor<int32, [4]>([0, 0, 0, 0])];
            tensor<int32, [2]> input_151_dilations_0 = const()[name = tensor<string, []>("input_151_dilations_0"), val = tensor<int32, [2]>([1, 1])];
            tensor<int32, []> input_151_groups_0 = const()[name = tensor<string, []>("input_151_groups_0"), val = tensor<int32, []>(1)];
            tensor<fp16, [384, 576, 1, 1]> bimfn_conv0_0_weight_to_fp16 = const()[name = tensor<string, []>("bimfn_conv0_0_weight_to_fp16"), val = tensor<fp16, [384, 576, 1, 1]>(BLOBFILE(path = tensor<string, []>("@model_path/weights/weight.bin"), offset = tensor<uint64, []>(2590144)))];
            tensor<fp16, [384]> bimfn_conv0_0_bias_to_fp16 = const()[name = tensor<string, []>("bimfn_conv0_0_bias_to_fp16"), val = tensor<fp16, [384]>(BLOBFILE(path = tensor<string, []>("@model_path/weights/weight.bin"), offset = tensor<uint64, []>(3032576)))];
            tensor<fp16, [1, 384, 8, 15]> input_151_cast_fp16 = conv(bias = bimfn_conv0_0_bias_to_fp16, dilations = input_151_dilations_0, groups = input_151_groups_0, pad = input_151_pad_0, pad_type = input_151_pad_type_0, strides = input_151_strides_0, weight = bimfn_conv0_0_weight_to_fp16, x = input_149_cast_fp16)[name = tensor<string, []>("input_151_cast_fp16")];
            tensor<fp16, [384]> input_153_alpha_0_to_fp16 = const()[name = tensor<string, []>("input_153_alpha_0_to_fp16"), val = tensor<fp16, [384]>(BLOBFILE(path = tensor<string, []>("@model_path/weights/weight.bin"), offset = tensor<uint64, []>(3033408)))];
            tensor<fp16, [1, 384, 8, 15]> input_153_cast_fp16 = prelu(alpha = input_153_alpha_0_to_fp16, x = input_151_cast_fp16)[name = tensor<string, []>("input_153_cast_fp16")];
            tensor<string, []> input_155_pad_type_0 = const()[name = tensor<string, []>("input_155_pad_type_0"), val = tensor<string, []>("custom")];
            tensor<int32, [4]> input_155_pad_0 = const()[name = tensor<string, []>("input_155_pad_0"), val = tensor<int32, [4]>([1, 1, 1, 1])];
            tensor<int32, [2]> input_155_strides_0 = const()[name = tensor<string, []>("input_155_strides_0"), val = tensor<int32, [2]>([1, 1])];
            tensor<int32, [2]> input_155_dilations_0 = const()[name = tensor<string, []>("input_155_dilations_0"), val = tensor<int32, [2]>([1, 1])];
            tensor<int32, []> input_155_groups_0 = const()[name = tensor<string, []>("input_155_groups_0"), val = tensor<int32, []>(1)];
            tensor<fp16, [384, 384, 3, 3]> bimfn_conv0_2_weight_to_fp16 = const()[name = tensor<string, []>("bimfn_conv0_2_weight_to_fp16"), val = tensor<fp16, [384, 384, 3, 3]>(BLOBFILE(path = tensor<string, []>("@model_path/weights/weight.bin"), offset = tensor<uint64, []>(3034240)))];
            tensor<fp16, [384]> bimfn_conv0_2_bias_to_fp16 = const()[name = tensor<string, []>("bimfn_conv0_2_bias_to_fp16"), val = tensor<fp16, [384]>(BLOBFILE(path = tensor<string, []>("@model_path/weights/weight.bin"), offset = tensor<uint64, []>(5688512)))];
            tensor<fp16, [1, 384, 8, 15]> input_155_cast_fp16 = conv(bias = bimfn_conv0_2_bias_to_fp16, dilations = input_155_dilations_0, groups = input_155_groups_0, pad = input_155_pad_0, pad_type = input_155_pad_type_0, strides = input_155_strides_0, weight = bimfn_conv0_2_weight_to_fp16, x = input_153_cast_fp16)[name = tensor<string, []>("input_155_cast_fp16")];
            tensor<string, []> input_157_pad_type_0 = const()[name = tensor<string, []>("input_157_pad_type_0"), val = tensor<string, []>("valid")];
            tensor<int32, [2]> input_157_strides_0 = const()[name = tensor<string, []>("input_157_strides_0"), val = tensor<int32, [2]>([1, 1])];
            tensor<int32, [4]> input_157_pad_0 = const()[name = tensor<string, []>("input_157_pad_0"), val = tensor<int32, [4]>([0, 0, 0, 0])];
            tensor<int32, [2]> input_157_dilations_0 = const()[name = tensor<string, []>("input_157_dilations_0"), val = tensor<int32, [2]>([1, 1])];
            tensor<int32, []> input_157_groups_0 = const()[name = tensor<string, []>("input_157_groups_0"), val = tensor<int32, []>(1)];
            tensor<fp16, [256, 384, 1, 1]> bimfn_conv1_0_weight_to_fp16 = const()[name = tensor<string, []>("bimfn_conv1_0_weight_to_fp16"), val = tensor<fp16, [256, 384, 1, 1]>(BLOBFILE(path = tensor<string, []>("@model_path/weights/weight.bin"), offset = tensor<uint64, []>(5689344)))];
            tensor<fp16, [256]> bimfn_conv1_0_bias_to_fp16 = const()[name = tensor<string, []>("bimfn_conv1_0_bias_to_fp16"), val = tensor<fp16, [256]>(BLOBFILE(path = tensor<string, []>("@model_path/weights/weight.bin"), offset = tensor<uint64, []>(5886016)))];
            tensor<fp16, [1, 256, 8, 15]> input_157_cast_fp16 = conv(bias = bimfn_conv1_0_bias_to_fp16, dilations = input_157_dilations_0, groups = input_157_groups_0, pad = input_157_pad_0, pad_type = input_157_pad_type_0, strides = input_157_strides_0, weight = bimfn_conv1_0_weight_to_fp16, x = input_155_cast_fp16)[name = tensor<string, []>("input_157_cast_fp16")];
            tensor<fp16, [256]> input_159_alpha_0_to_fp16 = const()[name = tensor<string, []>("input_159_alpha_0_to_fp16"), val = tensor<fp16, [256]>(BLOBFILE(path = tensor<string, []>("@model_path/weights/weight.bin"), offset = tensor<uint64, []>(5886592)))];
            tensor<fp16, [1, 256, 8, 15]> input_159_cast_fp16 = prelu(alpha = input_159_alpha_0_to_fp16, x = input_157_cast_fp16)[name = tensor<string, []>("input_159_cast_fp16")];
            tensor<string, []> input_161_pad_type_0 = const()[name = tensor<string, []>("input_161_pad_type_0"), val = tensor<string, []>("custom")];
            tensor<int32, [4]> input_161_pad_0 = const()[name = tensor<string, []>("input_161_pad_0"), val = tensor<int32, [4]>([1, 1, 1, 1])];
            tensor<int32, [2]> input_161_strides_0 = const()[name = tensor<string, []>("input_161_strides_0"), val = tensor<int32, [2]>([1, 1])];
            tensor<int32, [2]> input_161_dilations_0 = const()[name = tensor<string, []>("input_161_dilations_0"), val = tensor<int32, [2]>([1, 1])];
            tensor<int32, []> input_161_groups_0 = const()[name = tensor<string, []>("input_161_groups_0"), val = tensor<int32, []>(1)];
            tensor<fp16, [256, 256, 3, 3]> bimfn_conv1_2_weight_to_fp16 = const()[name = tensor<string, []>("bimfn_conv1_2_weight_to_fp16"), val = tensor<fp16, [256, 256, 3, 3]>(BLOBFILE(path = tensor<string, []>("@model_path/weights/weight.bin"), offset = tensor<uint64, []>(5887168)))];
            tensor<fp16, [256]> bimfn_conv1_2_bias_to_fp16 = const()[name = tensor<string, []>("bimfn_conv1_2_bias_to_fp16"), val = tensor<fp16, [256]>(BLOBFILE(path = tensor<string, []>("@model_path/weights/weight.bin"), offset = tensor<uint64, []>(7066880)))];
            tensor<fp16, [1, 256, 8, 15]> input_161_cast_fp16 = conv(bias = bimfn_conv1_2_bias_to_fp16, dilations = input_161_dilations_0, groups = input_161_groups_0, pad = input_161_pad_0, pad_type = input_161_pad_type_0, strides = input_161_strides_0, weight = bimfn_conv1_2_weight_to_fp16, x = input_159_cast_fp16)[name = tensor<string, []>("input_161_cast_fp16")];
            tensor<string, []> input_163_pad_type_0 = const()[name = tensor<string, []>("input_163_pad_type_0"), val = tensor<string, []>("valid")];
            tensor<int32, [2]> input_163_strides_0 = const()[name = tensor<string, []>("input_163_strides_0"), val = tensor<int32, [2]>([1, 1])];
            tensor<int32, [4]> input_163_pad_0 = const()[name = tensor<string, []>("input_163_pad_0"), val = tensor<int32, [4]>([0, 0, 0, 0])];
            tensor<int32, [2]> input_163_dilations_0 = const()[name = tensor<string, []>("input_163_dilations_0"), val = tensor<int32, [2]>([1, 1])];
            tensor<int32, []> input_163_groups_0 = const()[name = tensor<string, []>("input_163_groups_0"), val = tensor<int32, []>(1)];
            tensor<fp16, [192, 256, 1, 1]> bimfn_conv2_0_weight_to_fp16 = const()[name = tensor<string, []>("bimfn_conv2_0_weight_to_fp16"), val = tensor<fp16, [192, 256, 1, 1]>(BLOBFILE(path = tensor<string, []>("@model_path/weights/weight.bin"), offset = tensor<uint64, []>(7067456)))];
            tensor<fp16, [192]> bimfn_conv2_0_bias_to_fp16 = const()[name = tensor<string, []>("bimfn_conv2_0_bias_to_fp16"), val = tensor<fp16, [192]>(BLOBFILE(path = tensor<string, []>("@model_path/weights/weight.bin"), offset = tensor<uint64, []>(7165824)))];
            tensor<fp16, [1, 192, 8, 15]> input_163_cast_fp16 = conv(bias = bimfn_conv2_0_bias_to_fp16, dilations = input_163_dilations_0, groups = input_163_groups_0, pad = input_163_pad_0, pad_type = input_163_pad_type_0, strides = input_163_strides_0, weight = bimfn_conv2_0_weight_to_fp16, x = input_161_cast_fp16)[name = tensor<string, []>("input_163_cast_fp16")];
            tensor<fp16, [192]> input_165_alpha_0_to_fp16 = const()[name = tensor<string, []>("input_165_alpha_0_to_fp16"), val = tensor<fp16, [192]>(BLOBFILE(path = tensor<string, []>("@model_path/weights/weight.bin"), offset = tensor<uint64, []>(7166272)))];
            tensor<fp16, [1, 192, 8, 15]> input_165_cast_fp16 = prelu(alpha = input_165_alpha_0_to_fp16, x = input_163_cast_fp16)[name = tensor<string, []>("input_165_cast_fp16")];
            tensor<string, []> input_167_pad_type_0 = const()[name = tensor<string, []>("input_167_pad_type_0"), val = tensor<string, []>("custom")];
            tensor<int32, [4]> input_167_pad_0 = const()[name = tensor<string, []>("input_167_pad_0"), val = tensor<int32, [4]>([1, 1, 1, 1])];
            tensor<int32, [2]> input_167_strides_0 = const()[name = tensor<string, []>("input_167_strides_0"), val = tensor<int32, [2]>([1, 1])];
            tensor<int32, [2]> input_167_dilations_0 = const()[name = tensor<string, []>("input_167_dilations_0"), val = tensor<int32, [2]>([1, 1])];
            tensor<int32, []> input_167_groups_0 = const()[name = tensor<string, []>("input_167_groups_0"), val = tensor<int32, []>(1)];
            tensor<fp16, [192, 192, 3, 3]> bimfn_conv2_2_weight_to_fp16 = const()[name = tensor<string, []>("bimfn_conv2_2_weight_to_fp16"), val = tensor<fp16, [192, 192, 3, 3]>(BLOBFILE(path = tensor<string, []>("@model_path/weights/weight.bin"), offset = tensor<uint64, []>(7166720)))];
            tensor<fp16, [192]> bimfn_conv2_2_bias_to_fp16 = const()[name = tensor<string, []>("bimfn_conv2_2_bias_to_fp16"), val = tensor<fp16, [192]>(BLOBFILE(path = tensor<string, []>("@model_path/weights/weight.bin"), offset = tensor<uint64, []>(7830336)))];
            tensor<fp16, [1, 192, 8, 15]> input_167_cast_fp16 = conv(bias = bimfn_conv2_2_bias_to_fp16, dilations = input_167_dilations_0, groups = input_167_groups_0, pad = input_167_pad_0, pad_type = input_167_pad_type_0, strides = input_167_strides_0, weight = bimfn_conv2_2_weight_to_fp16, x = input_165_cast_fp16)[name = tensor<string, []>("input_167_cast_fp16")];
            tensor<string, []> input_169_pad_type_0 = const()[name = tensor<string, []>("input_169_pad_type_0"), val = tensor<string, []>("valid")];
            tensor<int32, [2]> input_169_strides_0 = const()[name = tensor<string, []>("input_169_strides_0"), val = tensor<int32, [2]>([1, 1])];
            tensor<int32, [4]> input_169_pad_0 = const()[name = tensor<string, []>("input_169_pad_0"), val = tensor<int32, [4]>([0, 0, 0, 0])];
            tensor<int32, [2]> input_169_dilations_0 = const()[name = tensor<string, []>("input_169_dilations_0"), val = tensor<int32, [2]>([1, 1])];
            tensor<int32, []> input_169_groups_0 = const()[name = tensor<string, []>("input_169_groups_0"), val = tensor<int32, []>(1)];
            tensor<fp16, [192, 192, 1, 1]> bimfn_conv3_0_weight_to_fp16 = const()[name = tensor<string, []>("bimfn_conv3_0_weight_to_fp16"), val = tensor<fp16, [192, 192, 1, 1]>(BLOBFILE(path = tensor<string, []>("@model_path/weights/weight.bin"), offset = tensor<uint64, []>(7830784)))];
            tensor<fp16, [192]> bimfn_conv3_0_bias_to_fp16 = const()[name = tensor<string, []>("bimfn_conv3_0_bias_to_fp16"), val = tensor<fp16, [192]>(BLOBFILE(path = tensor<string, []>("@model_path/weights/weight.bin"), offset = tensor<uint64, []>(7904576)))];
            tensor<fp16, [1, 192, 8, 15]> input_169_cast_fp16 = conv(bias = bimfn_conv3_0_bias_to_fp16, dilations = input_169_dilations_0, groups = input_169_groups_0, pad = input_169_pad_0, pad_type = input_169_pad_type_0, strides = input_169_strides_0, weight = bimfn_conv3_0_weight_to_fp16, x = input_167_cast_fp16)[name = tensor<string, []>("input_169_cast_fp16")];
            tensor<fp16, [192]> input_171_alpha_0_to_fp16 = const()[name = tensor<string, []>("input_171_alpha_0_to_fp16"), val = tensor<fp16, [192]>(BLOBFILE(path = tensor<string, []>("@model_path/weights/weight.bin"), offset = tensor<uint64, []>(7905024)))];
            tensor<fp16, [1, 192, 8, 15]> input_171_cast_fp16 = prelu(alpha = input_171_alpha_0_to_fp16, x = input_169_cast_fp16)[name = tensor<string, []>("input_171_cast_fp16")];
            tensor<string, []> x_31_pad_type_0 = const()[name = tensor<string, []>("x_31_pad_type_0"), val = tensor<string, []>("custom")];
            tensor<int32, [4]> x_31_pad_0 = const()[name = tensor<string, []>("x_31_pad_0"), val = tensor<int32, [4]>([1, 1, 1, 1])];
            tensor<int32, [2]> x_31_strides_0 = const()[name = tensor<string, []>("x_31_strides_0"), val = tensor<int32, [2]>([1, 1])];
            tensor<int32, [2]> x_31_dilations_0 = const()[name = tensor<string, []>("x_31_dilations_0"), val = tensor<int32, [2]>([1, 1])];
            tensor<int32, []> x_31_groups_0 = const()[name = tensor<string, []>("x_31_groups_0"), val = tensor<int32, []>(1)];
            tensor<fp16, [192, 192, 3, 3]> bimfn_conv3_2_weight_to_fp16 = const()[name = tensor<string, []>("bimfn_conv3_2_weight_to_fp16"), val = tensor<fp16, [192, 192, 3, 3]>(BLOBFILE(path = tensor<string, []>("@model_path/weights/weight.bin"), offset = tensor<uint64, []>(7905472)))];
            tensor<fp16, [192]> bimfn_conv3_2_bias_to_fp16 = const()[name = tensor<string, []>("bimfn_conv3_2_bias_to_fp16"), val = tensor<fp16, [192]>(BLOBFILE(path = tensor<string, []>("@model_path/weights/weight.bin"), offset = tensor<uint64, []>(8569088)))];
            tensor<fp16, [1, 192, 8, 15]> x_31_cast_fp16 = conv(bias = bimfn_conv3_2_bias_to_fp16, dilations = x_31_dilations_0, groups = x_31_groups_0, pad = x_31_pad_0, pad_type = x_31_pad_type_0, strides = x_31_strides_0, weight = bimfn_conv3_2_weight_to_fp16, x = input_171_cast_fp16)[name = tensor<string, []>("x_31_cast_fp16")];
            tensor<string, []> input_175_pad_type_0 = const()[name = tensor<string, []>("input_175_pad_type_0"), val = tensor<string, []>("valid")];
            tensor<int32, [2]> input_175_strides_0 = const()[name = tensor<string, []>("input_175_strides_0"), val = tensor<int32, [2]>([1, 1])];
            tensor<int32, [4]> input_175_pad_0 = const()[name = tensor<string, []>("input_175_pad_0"), val = tensor<int32, [4]>([0, 0, 0, 0])];
            tensor<int32, [2]> input_175_dilations_0 = const()[name = tensor<string, []>("input_175_dilations_0"), val = tensor<int32, [2]>([1, 1])];
            tensor<int32, []> input_175_groups_0 = const()[name = tensor<string, []>("input_175_groups_0"), val = tensor<int32, []>(1)];
            tensor<fp16, [128, 1, 1, 1]> bimfn_dem_0_weight_to_fp16 = const()[name = tensor<string, []>("bimfn_dem_0_weight_to_fp16"), val = tensor<fp16, [128, 1, 1, 1]>(BLOBFILE(path = tensor<string, []>("@model_path/weights/weight.bin"), offset = tensor<uint64, []>(8569536)))];
            tensor<fp16, [128]> bimfn_dem_0_bias_to_fp16 = const()[name = tensor<string, []>("bimfn_dem_0_bias_to_fp16"), val = tensor<fp16, [128]>(BLOBFILE(path = tensor<string, []>("@model_path/weights/weight.bin"), offset = tensor<uint64, []>(8569856)))];
            tensor<fp16, [1, 128, 8, 15]> input_175_cast_fp16 = conv(bias = bimfn_dem_0_bias_to_fp16, dilations = input_175_dilations_0, groups = input_175_groups_0, pad = input_175_pad_0, pad_type = input_175_pad_type_0, strides = input_175_strides_0, weight = bimfn_dem_0_weight_to_fp16, x = input_173_cast_fp16)[name = tensor<string, []>("input_175_cast_fp16")];
            tensor<fp16, [128]> input_177_alpha_0_to_fp16 = const()[name = tensor<string, []>("input_177_alpha_0_to_fp16"), val = tensor<fp16, [128]>(BLOBFILE(path = tensor<string, []>("@model_path/weights/weight.bin"), offset = tensor<uint64, []>(8570176)))];
            tensor<fp16, [1, 128, 8, 15]> input_177_cast_fp16 = prelu(alpha = input_177_alpha_0_to_fp16, x = input_175_cast_fp16)[name = tensor<string, []>("input_177_cast_fp16")];
            tensor<string, []> x_35_pad_type_0 = const()[name = tensor<string, []>("x_35_pad_type_0"), val = tensor<string, []>("valid")];
            tensor<int32, [2]> x_35_strides_0 = const()[name = tensor<string, []>("x_35_strides_0"), val = tensor<int32, [2]>([1, 1])];
            tensor<int32, [4]> x_35_pad_0 = const()[name = tensor<string, []>("x_35_pad_0"), val = tensor<int32, [4]>([0, 0, 0, 0])];
            tensor<int32, [2]> x_35_dilations_0 = const()[name = tensor<string, []>("x_35_dilations_0"), val = tensor<int32, [2]>([1, 1])];
            tensor<int32, []> x_35_groups_0 = const()[name = tensor<string, []>("x_35_groups_0"), val = tensor<int32, []>(1)];
            tensor<fp16, [192, 128, 1, 1]> bimfn_dem_2_weight_to_fp16 = const()[name = tensor<string, []>("bimfn_dem_2_weight_to_fp16"), val = tensor<fp16, [192, 128, 1, 1]>(BLOBFILE(path = tensor<string, []>("@model_path/weights/weight.bin"), offset = tensor<uint64, []>(8570496)))];
            tensor<fp16, [192]> bimfn_dem_2_bias_to_fp16 = const()[name = tensor<string, []>("bimfn_dem_2_bias_to_fp16"), val = tensor<fp16, [192]>(BLOBFILE(path = tensor<string, []>("@model_path/weights/weight.bin"), offset = tensor<uint64, []>(8619712)))];
            tensor<fp16, [1, 192, 8, 15]> x_35_cast_fp16 = conv(bias = bimfn_dem_2_bias_to_fp16, dilations = x_35_dilations_0, groups = x_35_groups_0, pad = x_35_pad_0, pad_type = x_35_pad_type_0, strides = x_35_strides_0, weight = bimfn_dem_2_weight_to_fp16, x = input_177_cast_fp16)[name = tensor<string, []>("x_35_cast_fp16")];
            tensor<string, []> input_181_pad_type_0 = const()[name = tensor<string, []>("input_181_pad_type_0"), val = tensor<string, []>("valid")];
            tensor<int32, [2]> input_181_strides_0 = const()[name = tensor<string, []>("input_181_strides_0"), val = tensor<int32, [2]>([1, 1])];
            tensor<int32, [4]> input_181_pad_0 = const()[name = tensor<string, []>("input_181_pad_0"), val = tensor<int32, [4]>([0, 0, 0, 0])];
            tensor<int32, [2]> input_181_dilations_0 = const()[name = tensor<string, []>("input_181_dilations_0"), val = tensor<int32, [2]>([1, 1])];
            tensor<int32, []> input_181_groups_0 = const()[name = tensor<string, []>("input_181_groups_0"), val = tensor<int32, []>(1)];
            tensor<fp16, [1, 2, 8, 15]> input_179_to_fp16 = const()[name = tensor<string, []>("input_179_to_fp16"), val = tensor<fp16, [1, 2, 8, 15]>(BLOBFILE(path = tensor<string, []>("@model_path/weights/weight.bin"), offset = tensor<uint64, []>(8620160)))];
            tensor<fp16, [128, 2, 1, 1]> bimfn_aem_0_weight_to_fp16 = const()[name = tensor<string, []>("bimfn_aem_0_weight_to_fp16"), val = tensor<fp16, [128, 2, 1, 1]>(BLOBFILE(path = tensor<string, []>("@model_path/weights/weight.bin"), offset = tensor<uint64, []>(8620736)))];
            tensor<fp16, [128]> bimfn_aem_0_bias_to_fp16 = const()[name = tensor<string, []>("bimfn_aem_0_bias_to_fp16"), val = tensor<fp16, [128]>(BLOBFILE(path = tensor<string, []>("@model_path/weights/weight.bin"), offset = tensor<uint64, []>(8621312)))];
            tensor<fp16, [1, 128, 8, 15]> input_181_cast_fp16 = conv(bias = bimfn_aem_0_bias_to_fp16, dilations = input_181_dilations_0, groups = input_181_groups_0, pad = input_181_pad_0, pad_type = input_181_pad_type_0, strides = input_181_strides_0, weight = bimfn_aem_0_weight_to_fp16, x = input_179_to_fp16)[name = tensor<string, []>("input_181_cast_fp16")];
            tensor<fp16, [128]> input_183_alpha_0_to_fp16 = const()[name = tensor<string, []>("input_183_alpha_0_to_fp16"), val = tensor<fp16, [128]>(BLOBFILE(path = tensor<string, []>("@model_path/weights/weight.bin"), offset = tensor<uint64, []>(8621632)))];
            tensor<fp16, [1, 128, 8, 15]> input_183_cast_fp16 = prelu(alpha = input_183_alpha_0_to_fp16, x = input_181_cast_fp16)[name = tensor<string, []>("input_183_cast_fp16")];
            tensor<string, []> x_39_pad_type_0 = const()[name = tensor<string, []>("x_39_pad_type_0"), val = tensor<string, []>("valid")];
            tensor<int32, [2]> x_39_strides_0 = const()[name = tensor<string, []>("x_39_strides_0"), val = tensor<int32, [2]>([1, 1])];
            tensor<int32, [4]> x_39_pad_0 = const()[name = tensor<string, []>("x_39_pad_0"), val = tensor<int32, [4]>([0, 0, 0, 0])];
            tensor<int32, [2]> x_39_dilations_0 = const()[name = tensor<string, []>("x_39_dilations_0"), val = tensor<int32, [2]>([1, 1])];
            tensor<int32, []> x_39_groups_0 = const()[name = tensor<string, []>("x_39_groups_0"), val = tensor<int32, []>(1)];
            tensor<fp16, [192, 128, 1, 1]> bimfn_aem_2_weight_to_fp16 = const()[name = tensor<string, []>("bimfn_aem_2_weight_to_fp16"), val = tensor<fp16, [192, 128, 1, 1]>(BLOBFILE(path = tensor<string, []>("@model_path/weights/weight.bin"), offset = tensor<uint64, []>(8621952)))];
            tensor<fp16, [192]> bimfn_aem_2_bias_to_fp16 = const()[name = tensor<string, []>("bimfn_aem_2_bias_to_fp16"), val = tensor<fp16, [192]>(BLOBFILE(path = tensor<string, []>("@model_path/weights/weight.bin"), offset = tensor<uint64, []>(8671168)))];
            tensor<fp16, [1, 192, 8, 15]> x_39_cast_fp16 = conv(bias = bimfn_aem_2_bias_to_fp16, dilations = x_39_dilations_0, groups = x_39_groups_0, pad = x_39_pad_0, pad_type = x_39_pad_type_0, strides = x_39_strides_0, weight = bimfn_aem_2_weight_to_fp16, x = input_183_cast_fp16)[name = tensor<string, []>("x_39_cast_fp16")];
            tensor<int32, [4]> var_880 = const()[name = tensor<string, []>("op_880"), val = tensor<int32, [4]>([0, 2, 3, 1])];
            tensor<int32, [1]> var_883_axes_0 = const()[name = tensor<string, []>("op_883_axes_0"), val = tensor<int32, [1]>([-1])];
            tensor<fp16, [192]> bimfn_bim_mconv_conv_FV_0_weight_to_fp16 = const()[name = tensor<string, []>("bimfn_bim_mconv_conv_FV_0_weight_to_fp16"), val = tensor<fp16, [192]>(BLOBFILE(path = tensor<string, []>("@model_path/weights/weight.bin"), offset = tensor<uint64, []>(8671616)))];
            tensor<fp16, [192]> bimfn_bim_mconv_conv_FV_0_bias_to_fp16 = const()[name = tensor<string, []>("bimfn_bim_mconv_conv_FV_0_bias_to_fp16"), val = tensor<fp16, [192]>(BLOBFILE(path = tensor<string, []>("@model_path/weights/weight.bin"), offset = tensor<uint64, []>(8672064)))];
            tensor<fp16, []> var_486_to_fp16 = const()[name = tensor<string, []>("op_486_to_fp16"), val = tensor<fp16, []>(0x1.1p-20)];
            tensor<fp16, [1, 8, 15, 192]> input_185_cast_fp16 = transpose(perm = var_880, x = x_31_cast_fp16)[name = tensor<string, []>("transpose_161")];
            tensor<fp16, [1, 8, 15, 192]> var_883_cast_fp16 = layer_norm(axes = var_883_axes_0, beta = bimfn_bim_mconv_conv_FV_0_bias_to_fp16, epsilon = var_486_to_fp16, gamma = bimfn_bim_mconv_conv_FV_0_weight_to_fp16, x = input_185_cast_fp16)[name = tensor<string, []>("op_883_cast_fp16")];
            tensor<int32, [4]> var_884 = const()[name = tensor<string, []>("op_884"), val = tensor<int32, [4]>([0, 3, 1, 2])];
            tensor<string, []> input_189_pad_type_0 = const()[name = tensor<string, []>("input_189_pad_type_0"), val = tensor<string, []>("valid")];
            tensor<int32, [2]> input_189_strides_0 = const()[name = tensor<string, []>("input_189_strides_0"), val = tensor<int32, [2]>([1, 1])];
            tensor<int32, [4]> input_189_pad_0 = const()[name = tensor<string, []>("input_189_pad_0"), val = tensor<int32, [4]>([0, 0, 0, 0])];
            tensor<int32, [2]> input_189_dilations_0 = const()[name = tensor<string, []>("input_189_dilations_0"), val = tensor<int32, [2]>([1, 1])];
            tensor<int32, []> input_189_groups_0 = const()[name = tensor<string, []>("input_189_groups_0"), val = tensor<int32, []>(1)];
            tensor<fp16, [192, 192, 1, 1]> bimfn_bim_mconv_conv_FV_1_conv1_weight_to_fp16 = const()[name = tensor<string, []>("bimfn_bim_mconv_conv_FV_1_conv1_weight_to_fp16"), val = tensor<fp16, [192, 192, 1, 1]>(BLOBFILE(path = tensor<string, []>("@model_path/weights/weight.bin"), offset = tensor<uint64, []>(8672512)))];
            tensor<fp16, [192]> bimfn_bim_mconv_conv_FV_1_conv1_bias_to_fp16 = const()[name = tensor<string, []>("bimfn_bim_mconv_conv_FV_1_conv1_bias_to_fp16"), val = tensor<fp16, [192]>(BLOBFILE(path = tensor<string, []>("@model_path/weights/weight.bin"), offset = tensor<uint64, []>(8746304)))];
            tensor<fp16, [1, 192, 8, 15]> input_187_cast_fp16 = transpose(perm = var_884, x = var_883_cast_fp16)[name = tensor<string, []>("transpose_160")];
            tensor<fp16, [1, 192, 8, 15]> input_189_cast_fp16 = conv(bias = bimfn_bim_mconv_conv_FV_1_conv1_bias_to_fp16, dilations = input_189_dilations_0, groups = input_189_groups_0, pad = input_189_pad_0, pad_type = input_189_pad_type_0, strides = input_189_strides_0, weight = bimfn_bim_mconv_conv_FV_1_conv1_weight_to_fp16, x = input_187_cast_fp16)[name = tensor<string, []>("input_189_cast_fp16")];
            tensor<fp16, []> var_484_to_fp16 = const()[name = tensor<string, []>("op_484_to_fp16"), val = tensor<fp16, []>(0x1.47cp-7)];
            tensor<fp16, [1, 192, 8, 15]> input_191_cast_fp16 = leaky_relu(alpha = var_484_to_fp16, x = input_189_cast_fp16)[name = tensor<string, []>("input_191_cast_fp16")];
            tensor<string, []> x_33_pad_type_0 = const()[name = tensor<string, []>("x_33_pad_type_0"), val = tensor<string, []>("valid")];
            tensor<int32, [2]> x_33_strides_0 = const()[name = tensor<string, []>("x_33_strides_0"), val = tensor<int32, [2]>([1, 1])];
            tensor<int32, [4]> x_33_pad_0 = const()[name = tensor<string, []>("x_33_pad_0"), val = tensor<int32, [4]>([0, 0, 0, 0])];
            tensor<int32, [2]> x_33_dilations_0 = const()[name = tensor<string, []>("x_33_dilations_0"), val = tensor<int32, [2]>([1, 1])];
            tensor<int32, []> x_33_groups_0 = const()[name = tensor<string, []>("x_33_groups_0"), val = tensor<int32, []>(1)];
            tensor<fp16, [192, 192, 1, 1]> bimfn_bim_mconv_conv_FV_1_conv2_weight_to_fp16 = const()[name = tensor<string, []>("bimfn_bim_mconv_conv_FV_1_conv2_weight_to_fp16"), val = tensor<fp16, [192, 192, 1, 1]>(BLOBFILE(path = tensor<string, []>("@model_path/weights/weight.bin"), offset = tensor<uint64, []>(8746752)))];
            tensor<fp16, [192]> bimfn_bim_mconv_conv_FV_1_conv2_bias_to_fp16 = const()[name = tensor<string, []>("bimfn_bim_mconv_conv_FV_1_conv2_bias_to_fp16"), val = tensor<fp16, [192]>(BLOBFILE(path = tensor<string, []>("@model_path/weights/weight.bin"), offset = tensor<uint64, []>(8820544)))];
            tensor<fp16, [1, 192, 8, 15]> x_33_cast_fp16 = conv(bias = bimfn_bim_mconv_conv_FV_1_conv2_bias_to_fp16, dilations = x_33_dilations_0, groups = x_33_groups_0, pad = x_33_pad_0, pad_type = x_33_pad_type_0, strides = x_33_strides_0, weight = bimfn_bim_mconv_conv_FV_1_conv2_weight_to_fp16, x = input_191_cast_fp16)[name = tensor<string, []>("x_33_cast_fp16")];
            tensor<fp16, [1, 192, 8, 15]> FV_out1_1_cast_fp16 = add(x = input_187_cast_fp16, y = x_33_cast_fp16)[name = tensor<string, []>("FV_out1_1_cast_fp16")];
            tensor<int32, [4]> var_908 = const()[name = tensor<string, []>("op_908"), val = tensor<int32, [4]>([0, 2, 3, 1])];
            tensor<int32, [1]> var_911_axes_0 = const()[name = tensor<string, []>("op_911_axes_0"), val = tensor<int32, [1]>([-1])];
            tensor<fp16, [192]> bimfn_bim_mconv_conv_r_0_weight_to_fp16 = const()[name = tensor<string, []>("bimfn_bim_mconv_conv_r_0_weight_to_fp16"), val = tensor<fp16, [192]>(BLOBFILE(path = tensor<string, []>("@model_path/weights/weight.bin"), offset = tensor<uint64, []>(8820992)))];
            tensor<fp16, [192]> bimfn_bim_mconv_conv_r_0_bias_to_fp16 = const()[name = tensor<string, []>("bimfn_bim_mconv_conv_r_0_bias_to_fp16"), val = tensor<fp16, [192]>(BLOBFILE(path = tensor<string, []>("@model_path/weights/weight.bin"), offset = tensor<uint64, []>(8821440)))];
            tensor<fp16, [1, 8, 15, 192]> input_193_cast_fp16 = transpose(perm = var_908, x = x_35_cast_fp16)[name = tensor<string, []>("transpose_159")];
            tensor<fp16, [1, 8, 15, 192]> var_911_cast_fp16 = layer_norm(axes = var_911_axes_0, beta = bimfn_bim_mconv_conv_r_0_bias_to_fp16, epsilon = var_486_to_fp16, gamma = bimfn_bim_mconv_conv_r_0_weight_to_fp16, x = input_193_cast_fp16)[name = tensor<string, []>("op_911_cast_fp16")];
            tensor<int32, [4]> var_912 = const()[name = tensor<string, []>("op_912"), val = tensor<int32, [4]>([0, 3, 1, 2])];
            tensor<string, []> input_197_pad_type_0 = const()[name = tensor<string, []>("input_197_pad_type_0"), val = tensor<string, []>("valid")];
            tensor<int32, [2]> input_197_strides_0 = const()[name = tensor<string, []>("input_197_strides_0"), val = tensor<int32, [2]>([1, 1])];
            tensor<int32, [4]> input_197_pad_0 = const()[name = tensor<string, []>("input_197_pad_0"), val = tensor<int32, [4]>([0, 0, 0, 0])];
            tensor<int32, [2]> input_197_dilations_0 = const()[name = tensor<string, []>("input_197_dilations_0"), val = tensor<int32, [2]>([1, 1])];
            tensor<int32, []> input_197_groups_0 = const()[name = tensor<string, []>("input_197_groups_0"), val = tensor<int32, []>(1)];
            tensor<fp16, [192, 192, 1, 1]> bimfn_bim_mconv_conv_r_1_conv1_weight_to_fp16 = const()[name = tensor<string, []>("bimfn_bim_mconv_conv_r_1_conv1_weight_to_fp16"), val = tensor<fp16, [192, 192, 1, 1]>(BLOBFILE(path = tensor<string, []>("@model_path/weights/weight.bin"), offset = tensor<uint64, []>(8821888)))];
            tensor<fp16, [192]> bimfn_bim_mconv_conv_r_1_conv1_bias_to_fp16 = const()[name = tensor<string, []>("bimfn_bim_mconv_conv_r_1_conv1_bias_to_fp16"), val = tensor<fp16, [192]>(BLOBFILE(path = tensor<string, []>("@model_path/weights/weight.bin"), offset = tensor<uint64, []>(8895680)))];
            tensor<fp16, [1, 192, 8, 15]> input_195_cast_fp16 = transpose(perm = var_912, x = var_911_cast_fp16)[name = tensor<string, []>("transpose_158")];
            tensor<fp16, [1, 192, 8, 15]> input_197_cast_fp16 = conv(bias = bimfn_bim_mconv_conv_r_1_conv1_bias_to_fp16, dilations = input_197_dilations_0, groups = input_197_groups_0, pad = input_197_pad_0, pad_type = input_197_pad_type_0, strides = input_197_strides_0, weight = bimfn_bim_mconv_conv_r_1_conv1_weight_to_fp16, x = input_195_cast_fp16)[name = tensor<string, []>("input_197_cast_fp16")];
            tensor<fp16, [1, 192, 8, 15]> input_199_cast_fp16 = leaky_relu(alpha = var_484_to_fp16, x = input_197_cast_fp16)[name = tensor<string, []>("input_199_cast_fp16")];
            tensor<string, []> x_37_pad_type_0 = const()[name = tensor<string, []>("x_37_pad_type_0"), val = tensor<string, []>("valid")];
            tensor<int32, [2]> x_37_strides_0 = const()[name = tensor<string, []>("x_37_strides_0"), val = tensor<int32, [2]>([1, 1])];
            tensor<int32, [4]> x_37_pad_0 = const()[name = tensor<string, []>("x_37_pad_0"), val = tensor<int32, [4]>([0, 0, 0, 0])];
            tensor<int32, [2]> x_37_dilations_0 = const()[name = tensor<string, []>("x_37_dilations_0"), val = tensor<int32, [2]>([1, 1])];
            tensor<int32, []> x_37_groups_0 = const()[name = tensor<string, []>("x_37_groups_0"), val = tensor<int32, []>(1)];
            tensor<fp16, [192, 192, 1, 1]> bimfn_bim_mconv_conv_r_1_conv2_weight_to_fp16 = const()[name = tensor<string, []>("bimfn_bim_mconv_conv_r_1_conv2_weight_to_fp16"), val = tensor<fp16, [192, 192, 1, 1]>(BLOBFILE(path = tensor<string, []>("@model_path/weights/weight.bin"), offset = tensor<uint64, []>(8896128)))];
            tensor<fp16, [192]> bimfn_bim_mconv_conv_r_1_conv2_bias_to_fp16 = const()[name = tensor<string, []>("bimfn_bim_mconv_conv_r_1_conv2_bias_to_fp16"), val = tensor<fp16, [192]>(BLOBFILE(path = tensor<string, []>("@model_path/weights/weight.bin"), offset = tensor<uint64, []>(8969920)))];
            tensor<fp16, [1, 192, 8, 15]> x_37_cast_fp16 = conv(bias = bimfn_bim_mconv_conv_r_1_conv2_bias_to_fp16, dilations = x_37_dilations_0, groups = x_37_groups_0, pad = x_37_pad_0, pad_type = x_37_pad_type_0, strides = x_37_strides_0, weight = bimfn_bim_mconv_conv_r_1_conv2_weight_to_fp16, x = input_199_cast_fp16)[name = tensor<string, []>("x_37_cast_fp16")];
            tensor<fp16, [1, 192, 8, 15]> r_out_1_cast_fp16 = add(x = input_195_cast_fp16, y = x_37_cast_fp16)[name = tensor<string, []>("r_out_1_cast_fp16")];
            tensor<int32, [4]> var_936 = const()[name = tensor<string, []>("op_936"), val = tensor<int32, [4]>([0, 2, 3, 1])];
            tensor<int32, [1]> var_939_axes_0 = const()[name = tensor<string, []>("op_939_axes_0"), val = tensor<int32, [1]>([-1])];
            tensor<fp16, [192]> bimfn_bim_mconv_conv_phi_0_weight_to_fp16 = const()[name = tensor<string, []>("bimfn_bim_mconv_conv_phi_0_weight_to_fp16"), val = tensor<fp16, [192]>(BLOBFILE(path = tensor<string, []>("@model_path/weights/weight.bin"), offset = tensor<uint64, []>(8970368)))];
            tensor<fp16, [192]> bimfn_bim_mconv_conv_phi_0_bias_to_fp16 = const()[name = tensor<string, []>("bimfn_bim_mconv_conv_phi_0_bias_to_fp16"), val = tensor<fp16, [192]>(BLOBFILE(path = tensor<string, []>("@model_path/weights/weight.bin"), offset = tensor<uint64, []>(8970816)))];
            tensor<fp16, [1, 8, 15, 192]> input_201_cast_fp16 = transpose(perm = var_936, x = x_39_cast_fp16)[name = tensor<string, []>("transpose_157")];
            tensor<fp16, [1, 8, 15, 192]> var_939_cast_fp16 = layer_norm(axes = var_939_axes_0, beta = bimfn_bim_mconv_conv_phi_0_bias_to_fp16, epsilon = var_486_to_fp16, gamma = bimfn_bim_mconv_conv_phi_0_weight_to_fp16, x = input_201_cast_fp16)[name = tensor<string, []>("op_939_cast_fp16")];
            tensor<int32, [4]> var_940 = const()[name = tensor<string, []>("op_940"), val = tensor<int32, [4]>([0, 3, 1, 2])];
            tensor<string, []> input_205_pad_type_0 = const()[name = tensor<string, []>("input_205_pad_type_0"), val = tensor<string, []>("valid")];
            tensor<int32, [2]> input_205_strides_0 = const()[name = tensor<string, []>("input_205_strides_0"), val = tensor<int32, [2]>([1, 1])];
            tensor<int32, [4]> input_205_pad_0 = const()[name = tensor<string, []>("input_205_pad_0"), val = tensor<int32, [4]>([0, 0, 0, 0])];
            tensor<int32, [2]> input_205_dilations_0 = const()[name = tensor<string, []>("input_205_dilations_0"), val = tensor<int32, [2]>([1, 1])];
            tensor<int32, []> input_205_groups_0 = const()[name = tensor<string, []>("input_205_groups_0"), val = tensor<int32, []>(1)];
            tensor<fp16, [192, 192, 1, 1]> bimfn_bim_mconv_conv_phi_1_conv1_weight_to_fp16 = const()[name = tensor<string, []>("bimfn_bim_mconv_conv_phi_1_conv1_weight_to_fp16"), val = tensor<fp16, [192, 192, 1, 1]>(BLOBFILE(path = tensor<string, []>("@model_path/weights/weight.bin"), offset = tensor<uint64, []>(8971264)))];
            tensor<fp16, [192]> bimfn_bim_mconv_conv_phi_1_conv1_bias_to_fp16 = const()[name = tensor<string, []>("bimfn_bim_mconv_conv_phi_1_conv1_bias_to_fp16"), val = tensor<fp16, [192]>(BLOBFILE(path = tensor<string, []>("@model_path/weights/weight.bin"), offset = tensor<uint64, []>(9045056)))];
            tensor<fp16, [1, 192, 8, 15]> input_203_cast_fp16 = transpose(perm = var_940, x = var_939_cast_fp16)[name = tensor<string, []>("transpose_156")];
            tensor<fp16, [1, 192, 8, 15]> input_205_cast_fp16 = conv(bias = bimfn_bim_mconv_conv_phi_1_conv1_bias_to_fp16, dilations = input_205_dilations_0, groups = input_205_groups_0, pad = input_205_pad_0, pad_type = input_205_pad_type_0, strides = input_205_strides_0, weight = bimfn_bim_mconv_conv_phi_1_conv1_weight_to_fp16, x = input_203_cast_fp16)[name = tensor<string, []>("input_205_cast_fp16")];
            tensor<fp16, [1, 192, 8, 15]> input_207_cast_fp16 = leaky_relu(alpha = var_484_to_fp16, x = input_205_cast_fp16)[name = tensor<string, []>("input_207_cast_fp16")];
            tensor<string, []> x_41_pad_type_0 = const()[name = tensor<string, []>("x_41_pad_type_0"), val = tensor<string, []>("valid")];
            tensor<int32, [2]> x_41_strides_0 = const()[name = tensor<string, []>("x_41_strides_0"), val = tensor<int32, [2]>([1, 1])];
            tensor<int32, [4]> x_41_pad_0 = const()[name = tensor<string, []>("x_41_pad_0"), val = tensor<int32, [4]>([0, 0, 0, 0])];
            tensor<int32, [2]> x_41_dilations_0 = const()[name = tensor<string, []>("x_41_dilations_0"), val = tensor<int32, [2]>([1, 1])];
            tensor<int32, []> x_41_groups_0 = const()[name = tensor<string, []>("x_41_groups_0"), val = tensor<int32, []>(1)];
            tensor<fp16, [192, 192, 1, 1]> bimfn_bim_mconv_conv_phi_1_conv2_weight_to_fp16 = const()[name = tensor<string, []>("bimfn_bim_mconv_conv_phi_1_conv2_weight_to_fp16"), val = tensor<fp16, [192, 192, 1, 1]>(BLOBFILE(path = tensor<string, []>("@model_path/weights/weight.bin"), offset = tensor<uint64, []>(9045504)))];
            tensor<fp16, [192]> bimfn_bim_mconv_conv_phi_1_conv2_bias_to_fp16 = const()[name = tensor<string, []>("bimfn_bim_mconv_conv_phi_1_conv2_bias_to_fp16"), val = tensor<fp16, [192]>(BLOBFILE(path = tensor<string, []>("@model_path/weights/weight.bin"), offset = tensor<uint64, []>(9119296)))];
            tensor<fp16, [1, 192, 8, 15]> x_41_cast_fp16 = conv(bias = bimfn_bim_mconv_conv_phi_1_conv2_bias_to_fp16, dilations = x_41_dilations_0, groups = x_41_groups_0, pad = x_41_pad_0, pad_type = x_41_pad_type_0, strides = x_41_strides_0, weight = bimfn_bim_mconv_conv_phi_1_conv2_weight_to_fp16, x = input_207_cast_fp16)[name = tensor<string, []>("x_41_cast_fp16")];
            tensor<fp16, [1, 192, 8, 15]> phi_out_1_cast_fp16 = add(x = input_203_cast_fp16, y = x_41_cast_fp16)[name = tensor<string, []>("phi_out_1_cast_fp16")];
            tensor<fp16, [1, 192, 8, 15]> var_960_cast_fp16 = mul(x = FV_out1_1_cast_fp16, y = r_out_1_cast_fp16)[name = tensor<string, []>("op_960_cast_fp16")];
            tensor<fp16, [1, 192, 8, 15]> var_961_cast_fp16 = mul(x = var_960_cast_fp16, y = phi_out_1_cast_fp16)[name = tensor<string, []>("op_961_cast_fp16")];
            tensor<fp16, [1, 192, 8, 15]> input_209_cast_fp16 = add(x = FV_out1_1_cast_fp16, y = var_961_cast_fp16)[name = tensor<string, []>("input_209_cast_fp16")];
            tensor<string, []> input_211_pad_type_0 = const()[name = tensor<string, []>("input_211_pad_type_0"), val = tensor<string, []>("valid")];
            tensor<int32, [2]> input_211_strides_0 = const()[name = tensor<string, []>("input_211_strides_0"), val = tensor<int32, [2]>([1, 1])];
            tensor<int32, [4]> input_211_pad_0 = const()[name = tensor<string, []>("input_211_pad_0"), val = tensor<int32, [4]>([0, 0, 0, 0])];
            tensor<int32, [2]> input_211_dilations_0 = const()[name = tensor<string, []>("input_211_dilations_0"), val = tensor<int32, [2]>([1, 1])];
            tensor<int32, []> input_211_groups_0 = const()[name = tensor<string, []>("input_211_groups_0"), val = tensor<int32, []>(1)];
            tensor<fp16, [128, 192, 1, 1]> bimfn_conv_out_0_weight_to_fp16 = const()[name = tensor<string, []>("bimfn_conv_out_0_weight_to_fp16"), val = tensor<fp16, [128, 192, 1, 1]>(BLOBFILE(path = tensor<string, []>("@model_path/weights/weight.bin"), offset = tensor<uint64, []>(9119744)))];
            tensor<fp16, [128]> bimfn_conv_out_0_bias_to_fp16 = const()[name = tensor<string, []>("bimfn_conv_out_0_bias_to_fp16"), val = tensor<fp16, [128]>(BLOBFILE(path = tensor<string, []>("@model_path/weights/weight.bin"), offset = tensor<uint64, []>(9168960)))];
            tensor<fp16, [1, 128, 8, 15]> input_211_cast_fp16 = conv(bias = bimfn_conv_out_0_bias_to_fp16, dilations = input_211_dilations_0, groups = input_211_groups_0, pad = input_211_pad_0, pad_type = input_211_pad_type_0, strides = input_211_strides_0, weight = bimfn_conv_out_0_weight_to_fp16, x = input_209_cast_fp16)[name = tensor<string, []>("input_211_cast_fp16")];
            tensor<fp16, [128]> input_213_alpha_0_to_fp16 = const()[name = tensor<string, []>("input_213_alpha_0_to_fp16"), val = tensor<fp16, [128]>(BLOBFILE(path = tensor<string, []>("@model_path/weights/weight.bin"), offset = tensor<uint64, []>(9169280)))];
            tensor<fp16, [1, 128, 8, 15]> input_213_cast_fp16 = prelu(alpha = input_213_alpha_0_to_fp16, x = input_211_cast_fp16)[name = tensor<string, []>("input_213_cast_fp16")];
            tensor<string, []> flow_res_1_pad_type_0 = const()[name = tensor<string, []>("flow_res_1_pad_type_0"), val = tensor<string, []>("valid")];
            tensor<int32, [2]> flow_res_1_strides_0 = const()[name = tensor<string, []>("flow_res_1_strides_0"), val = tensor<int32, [2]>([1, 1])];
            tensor<int32, [4]> flow_res_1_pad_0 = const()[name = tensor<string, []>("flow_res_1_pad_0"), val = tensor<int32, [4]>([0, 0, 0, 0])];
            tensor<int32, [2]> flow_res_1_dilations_0 = const()[name = tensor<string, []>("flow_res_1_dilations_0"), val = tensor<int32, [2]>([1, 1])];
            tensor<int32, []> flow_res_1_groups_0 = const()[name = tensor<string, []>("flow_res_1_groups_0"), val = tensor<int32, []>(1)];
            tensor<fp16, [4, 128, 1, 1]> bimfn_conv_out_2_weight_to_fp16 = const()[name = tensor<string, []>("bimfn_conv_out_2_weight_to_fp16"), val = tensor<fp16, [4, 128, 1, 1]>(BLOBFILE(path = tensor<string, []>("@model_path/weights/weight.bin"), offset = tensor<uint64, []>(9169600)))];
            tensor<fp16, [4]> bimfn_conv_out_2_bias_to_fp16 = const()[name = tensor<string, []>("bimfn_conv_out_2_bias_to_fp16"), val = tensor<fp16, [4]>([-0x1.05cp-6, -0x1.8c4p-5, 0x1.2b8p-5, 0x1.6cp-5])];
            tensor<fp16, [1, 4, 8, 15]> flow_res_1_cast_fp16 = conv(bias = bimfn_conv_out_2_bias_to_fp16, dilations = flow_res_1_dilations_0, groups = flow_res_1_groups_0, pad = flow_res_1_pad_0, pad_type = flow_res_1_pad_type_0, strides = flow_res_1_strides_0, weight = bimfn_conv_out_2_weight_to_fp16, x = input_213_cast_fp16)[name = tensor<string, []>("flow_res_1_cast_fp16")];
            tensor<fp16, [1, 4, 8, 15]> flow_low_cast_fp16 = add(x = flow_res_1_cast_fp16, y = last_flow_3_cast_fp16)[name = tensor<string, []>("flow_low_cast_fp16")];
            tensor<int32, [4]> input_215_begin_0 = const()[name = tensor<string, []>("input_215_begin_0"), val = tensor<int32, [4]>([0, 0, 0, 0])];
            tensor<int32, [4]> input_215_end_0 = const()[name = tensor<string, []>("input_215_end_0"), val = tensor<int32, [4]>([1, 2, 8, 15])];
            tensor<bool, [4]> input_215_end_mask_0 = const()[name = tensor<string, []>("input_215_end_mask_0"), val = tensor<bool, [4]>([true, false, true, true])];
            tensor<fp16, [1, 2, 8, 15]> input_215_cast_fp16 = slice_by_index(begin = input_215_begin_0, end = input_215_end_0, end_mask = input_215_end_mask_0, x = flow_low_cast_fp16)[name = tensor<string, []>("input_215_cast_fp16")];
            tensor<int32, [1]> var_995 = const()[name = tensor<string, []>("op_995"), val = tensor<int32, [1]>([1])];
            tensor<bool, []> var_996 = const()[name = tensor<string, []>("op_996"), val = tensor<bool, []>(true)];
            tensor<fp16, [1, 1, 8, 15]> mag_fwd_cast_fp16 = reduce_l2_norm(axes = var_995, keep_dims = var_996, x = input_215_cast_fp16)[name = tensor<string, []>("mag_fwd_cast_fp16")];
            tensor<int32, [4]> input_217_begin_0 = const()[name = tensor<string, []>("input_217_begin_0"), val = tensor<int32, [4]>([0, 2, 0, 0])];
            tensor<int32, [4]> input_217_end_0 = const()[name = tensor<string, []>("input_217_end_0"), val = tensor<int32, [4]>([1, 1, 8, 15])];
            tensor<bool, [4]> input_217_end_mask_0 = const()[name = tensor<string, []>("input_217_end_mask_0"), val = tensor<bool, [4]>([true, true, true, true])];
            tensor<fp16, [1, 2, 8, 15]> input_217_cast_fp16 = slice_by_index(begin = input_217_begin_0, end = input_217_end_0, end_mask = input_217_end_mask_0, x = flow_low_cast_fp16)[name = tensor<string, []>("input_217_cast_fp16")];
            tensor<int32, [1]> var_1011 = const()[name = tensor<string, []>("op_1011"), val = tensor<int32, [1]>([1])];
            tensor<bool, []> var_1012 = const()[name = tensor<string, []>("op_1012"), val = tensor<bool, []>(true)];
            tensor<fp16, [1, 1, 8, 15]> mag_bwd_cast_fp16 = reduce_l2_norm(axes = var_1011, keep_dims = var_1012, x = input_217_cast_fp16)[name = tensor<string, []>("mag_bwd_cast_fp16")];
            tensor<bool, []> fwd_max_keep_dims_0 = const()[name = tensor<string, []>("fwd_max_keep_dims_0"), val = tensor<bool, []>(false)];
            tensor<fp16, []> fwd_max_cast_fp16 = reduce_max(keep_dims = fwd_max_keep_dims_0, x = mag_fwd_cast_fp16)[name = tensor<string, []>("fwd_max_cast_fp16")];
            tensor<bool, []> bwd_max_keep_dims_0 = const()[name = tensor<string, []>("bwd_max_keep_dims_0"), val = tensor<bool, []>(false)];
            tensor<fp16, []> bwd_max_cast_fp16 = reduce_max(keep_dims = bwd_max_keep_dims_0, x = mag_bwd_cast_fp16)[name = tensor<string, []>("bwd_max_cast_fp16")];
            tensor<bool, []> fwd_mean_keep_dims_0 = const()[name = tensor<string, []>("fwd_mean_keep_dims_0"), val = tensor<bool, []>(false)];
            tensor<fp16, []> fwd_mean_cast_fp16 = reduce_mean(keep_dims = fwd_mean_keep_dims_0, x = mag_fwd_cast_fp16)[name = tensor<string, []>("fwd_mean_cast_fp16")];
            tensor<bool, []> bwd_mean_keep_dims_0 = const()[name = tensor<string, []>("bwd_mean_keep_dims_0"), val = tensor<bool, []>(false)];
            tensor<fp16, []> bwd_mean_cast_fp16 = reduce_mean(keep_dims = bwd_mean_keep_dims_0, x = mag_bwd_cast_fp16)[name = tensor<string, []>("bwd_mean_cast_fp16")];
            tensor<fp16, []> max_val_cast_fp16 = maximum(x = fwd_max_cast_fp16, y = bwd_max_cast_fp16)[name = tensor<string, []>("max_val_cast_fp16")];
            tensor<fp16, []> var_1022_to_fp16 = const()[name = tensor<string, []>("op_1022_to_fp16"), val = tensor<fp16, []>(0x1.47cp-3)];
            tensor<bool, []> is_static_cast_fp16 = less(x = max_val_cast_fp16, y = var_1022_to_fp16)[name = tensor<string, []>("is_static_cast_fp16")];
            tensor<fp16, []> var_1024_to_fp16 = const()[name = tensor<string, []>("op_1024_to_fp16"), val = tensor<fp16, []>(0x1.47cp-3)];
            tensor<bool, []> var_1025_cast_fp16 = greater_equal(x = fwd_max_cast_fp16, y = var_1024_to_fp16)[name = tensor<string, []>("op_1025_cast_fp16")];
            tensor<fp16, []> var_1026_to_fp16 = const()[name = tensor<string, []>("op_1026_to_fp16"), val = tensor<fp16, []>(0x1.998p-4)];
            tensor<bool, []> var_1027_cast_fp16 = greater(x = fwd_mean_cast_fp16, y = var_1026_to_fp16)[name = tensor<string, []>("op_1027_cast_fp16")];
            tensor<bool, []> is_large_fwd = logical_and(x = var_1025_cast_fp16, y = var_1027_cast_fp16)[name = tensor<string, []>("is_large_fwd")];
            tensor<fp16, []> var_1029_to_fp16 = const()[name = tensor<string, []>("op_1029_to_fp16"), val = tensor<fp16, []>(0x1.47cp-3)];
            tensor<bool, []> var_1030_cast_fp16 = greater_equal(x = bwd_max_cast_fp16, y = var_1029_to_fp16)[name = tensor<string, []>("op_1030_cast_fp16")];
            tensor<fp16, []> var_1031_to_fp16 = const()[name = tensor<string, []>("op_1031_to_fp16"), val = tensor<fp16, []>(0x1.998p-4)];
            tensor<bool, []> var_1032_cast_fp16 = greater(x = bwd_mean_cast_fp16, y = var_1031_to_fp16)[name = tensor<string, []>("op_1032_cast_fp16")];
            tensor<bool, []> is_large_bwd = logical_and(x = var_1030_cast_fp16, y = var_1032_cast_fp16)[name = tensor<string, []>("is_large_bwd")];
            tensor<bool, []> is_large_motion = logical_or(x = is_large_fwd, y = is_large_bwd)[name = tensor<string, []>("is_large_motion")];
            tensor<fp16, []> var_1036_to_fp16 = const()[name = tensor<string, []>("op_1036_to_fp16"), val = tensor<fp16, []>(0x1.894p-8)];
            tensor<fp16, [1, 1, 8, 15]> var_1037_cast_fp16 = sub(x = mag_fwd_cast_fp16, y = var_1036_to_fp16)[name = tensor<string, []>("op_1037_cast_fp16")];
            tensor<fp16, []> var_1038_to_fp16 = const()[name = tensor<string, []>("op_1038_to_fp16"), val = tensor<fp16, []>(0x1.018p+0)];
            tensor<fp16, [1, 1, 8, 15]> var_1039_cast_fp16 = mul(x = var_1037_cast_fp16, y = var_1038_to_fp16)[name = tensor<string, []>("op_1039_cast_fp16")];
            tensor<fp16, []> var_1040_to_fp16 = const()[name = tensor<string, []>("op_1040_to_fp16"), val = tensor<fp16, []>(0x0p+0)];
            tensor<fp16, []> var_1041_to_fp16 = const()[name = tensor<string, []>("op_1041_to_fp16"), val = tensor<fp16, []>(0x1p+0)];
            tensor<fp16, [1, 1, 8, 15]> clip_0_cast_fp16 = clip(alpha = var_1040_to_fp16, beta = var_1041_to_fp16, x = var_1039_cast_fp16)[name = tensor<string, []>("clip_0_cast_fp16")];
            tensor<fp16, []> var_1044_to_fp16 = const()[name = tensor<string, []>("op_1044_to_fp16"), val = tensor<fp16, []>(0x1.894p-8)];
            tensor<fp16, [1, 1, 8, 15]> var_1045_cast_fp16 = sub(x = mag_bwd_cast_fp16, y = var_1044_to_fp16)[name = tensor<string, []>("op_1045_cast_fp16")];
            tensor<fp16, []> var_1046_to_fp16 = const()[name = tensor<string, []>("op_1046_to_fp16"), val = tensor<fp16, []>(0x1.018p+0)];
            tensor<fp16, [1, 1, 8, 15]> var_1047_cast_fp16 = mul(x = var_1045_cast_fp16, y = var_1046_to_fp16)[name = tensor<string, []>("op_1047_cast_fp16")];
            tensor<fp16, []> var_1048_to_fp16 = const()[name = tensor<string, []>("op_1048_to_fp16"), val = tensor<fp16, []>(0x0p+0)];
            tensor<fp16, []> var_1049_to_fp16 = const()[name = tensor<string, []>("op_1049_to_fp16"), val = tensor<fp16, []>(0x1p+0)];
            tensor<fp16, [1, 1, 8, 15]> clip_1_cast_fp16 = clip(alpha = var_1048_to_fp16, beta = var_1049_to_fp16, x = var_1047_cast_fp16)[name = tensor<string, []>("clip_1_cast_fp16")];
            tensor<fp16, []> fill_like_0_value_0_to_fp16 = const()[name = tensor<string, []>("fill_like_0_value_0_to_fp16"), val = tensor<fp16, []>(0x1p+0)];
            tensor<fp16, [1, 1, 8, 15]> fill_like_0_cast_fp16 = fill_like(ref_tensor = clip_0_cast_fp16, value = fill_like_0_value_0_to_fp16)[name = tensor<string, []>("fill_like_0_cast_fp16")];
            tensor<int32, [4]> expand_dims_0_axes_0 = const()[name = tensor<string, []>("expand_dims_0_axes_0"), val = tensor<int32, [4]>([0, 1, 2, 3])];
            tensor<bool, [1, 1, 1, 1]> expand_dims_0 = expand_dims(axes = expand_dims_0_axes_0, x = is_large_motion)[name = tensor<string, []>("expand_dims_0")];
            tensor<int32, [4]> is_large_motion_after_broadcast_reps_0 = const()[name = tensor<string, []>("is_large_motion_after_broadcast_reps_0"), val = tensor<int32, [4]>([1, 1, 8, 15])];
            tensor<bool, [1, 1, 8, 15]> is_large_motion_after_broadcast = tile(reps = is_large_motion_after_broadcast_reps_0, x = expand_dims_0)[name = tensor<string, []>("is_large_motion_after_broadcast")];
            tensor<fp16, [1, 1, 8, 15]> temp_w_fwd_cast_fp16 = select(a = fill_like_0_cast_fp16, b = clip_0_cast_fp16, cond = is_large_motion_after_broadcast)[name = tensor<string, []>("temp_w_fwd_cast_fp16")];
            tensor<fp16, [1, 1, 8, 15]> temp_w_bwd_cast_fp16 = select(a = fill_like_0_cast_fp16, b = clip_1_cast_fp16, cond = is_large_motion_after_broadcast)[name = tensor<string, []>("temp_w_bwd_cast_fp16")];
            tensor<int32, [4]> expand_dims_2_axes_0 = const()[name = tensor<string, []>("expand_dims_2_axes_0"), val = tensor<int32, [4]>([0, 1, 2, 3])];
            tensor<bool, [1, 1, 1, 1]> expand_dims_2 = expand_dims(axes = expand_dims_2_axes_0, x = is_static_cast_fp16)[name = tensor<string, []>("expand_dims_2")];
            tensor<int32, [4]> is_static_after_broadcast_reps_0 = const()[name = tensor<string, []>("is_static_after_broadcast_reps_0"), val = tensor<int32, [4]>([1, 1, 8, 15])];
            tensor<bool, [1, 1, 8, 15]> is_static_after_broadcast = tile(reps = is_static_after_broadcast_reps_0, x = expand_dims_2)[name = tensor<string, []>("is_static_after_broadcast")];
            tensor<fp16, [1, 1, 8, 15]> zeros_to_fp16 = const()[name = tensor<string, []>("zeros_to_fp16"), val = tensor<fp16, [1, 1, 8, 15]>(BLOBFILE(path = tensor<string, []>("@model_path/weights/weight.bin"), offset = tensor<uint64, []>(9170688)))];
            tensor<fp16, [1, 1, 8, 15]> final_w_fwd_cast_fp16 = select(a = zeros_to_fp16, b = temp_w_fwd_cast_fp16, cond = is_static_after_broadcast)[name = tensor<string, []>("final_w_fwd_cast_fp16")];
            tensor<fp16, [1, 1, 8, 15]> final_w_bwd_cast_fp16 = select(a = zeros_to_fp16, b = temp_w_bwd_cast_fp16, cond = is_static_after_broadcast)[name = tensor<string, []>("final_w_bwd_cast_fp16")];
            tensor<fp16, [1, 2, 8, 15]> var_1077_cast_fp16 = mul(x = input_215_cast_fp16, y = final_w_fwd_cast_fp16)[name = tensor<string, []>("op_1077_cast_fp16")];
            tensor<fp16, [1, 2, 8, 15]> var_1088_cast_fp16 = mul(x = input_217_cast_fp16, y = final_w_bwd_cast_fp16)[name = tensor<string, []>("op_1088_cast_fp16")];
            tensor<int32, []> var_1090 = const()[name = tensor<string, []>("op_1090"), val = tensor<int32, []>(1)];
            tensor<bool, []> flow_1_interleave_0 = const()[name = tensor<string, []>("flow_1_interleave_0"), val = tensor<bool, []>(false)];
            tensor<fp16, [1, 4, 8, 15]> flow_1_cast_fp16 = concat(axis = var_1090, interleave = flow_1_interleave_0, values = (var_1077_cast_fp16, var_1088_cast_fp16))[name = tensor<string, []>("flow_1_cast_fp16")];
            tensor<int32, []> var_1097 = const()[name = tensor<string, []>("op_1097"), val = tensor<int32, []>(4)];
            tensor<int32, []> var_1108 = const()[name = tensor<string, []>("op_1108"), val = tensor<int32, []>(2)];
            tensor<int32, []> var_1110 = const()[name = tensor<string, []>("op_1110"), val = tensor<int32, []>(1)];
            tensor<fp16, []> var_1126_promoted_to_fp16 = const()[name = tensor<string, []>("op_1126_promoted_to_fp16"), val = tensor<fp16, []>(0x1p+2)];
            tensor<fp16, [1, 4, 8, 15]> input_219_cast_fp16 = mul(x = flow_1_cast_fp16, y = var_1126_promoted_to_fp16)[name = tensor<string, []>("input_219_cast_fp16")];
            tensor<fp32, []> flow_bi_1_scale_factor_height_0 = const()[name = tensor<string, []>("flow_bi_1_scale_factor_height_0"), val = tensor<fp32, []>(0x1p+2)];
            tensor<fp32, []> flow_bi_1_scale_factor_width_0 = const()[name = tensor<string, []>("flow_bi_1_scale_factor_width_0"), val = tensor<fp32, []>(0x1p+2)];
            tensor<bool, []> flow_bi_1_align_corners_0 = const()[name = tensor<string, []>("flow_bi_1_align_corners_0"), val = tensor<bool, []>(false)];
            tensor<fp16, [1, 4, 32, 60]> flow_bi_1_cast_fp16 = upsample_bilinear(align_corners = flow_bi_1_align_corners_0, scale_factor_height = flow_bi_1_scale_factor_height_0, scale_factor_width = flow_bi_1_scale_factor_width_0, x = input_219_cast_fp16)[name = tensor<string, []>("flow_bi_1_cast_fp16")];
            tensor<string, []> input_225_pad_type_0 = const()[name = tensor<string, []>("input_225_pad_type_0"), val = tensor<string, []>("custom")];
            tensor<int32, [4]> input_225_pad_0 = const()[name = tensor<string, []>("input_225_pad_0"), val = tensor<int32, [4]>([1, 1, 1, 1])];
            tensor<int32, [2]> input_225_strides_0 = const()[name = tensor<string, []>("input_225_strides_0"), val = tensor<int32, [2]>([1, 1])];
            tensor<int32, [2]> input_225_dilations_0 = const()[name = tensor<string, []>("input_225_dilations_0"), val = tensor<int32, [2]>([1, 1])];
            tensor<int32, []> input_225_groups_0 = const()[name = tensor<string, []>("input_225_groups_0"), val = tensor<int32, []>(1)];
            tensor<fp16, [1, 32, 3, 3]> caun_warp_conv1_weight_to_fp16 = const()[name = tensor<string, []>("caun_warp_conv1_weight_to_fp16"), val = tensor<fp16, [1, 32, 3, 3]>(BLOBFILE(path = tensor<string, []>("@model_path/weights/weight.bin"), offset = tensor<uint64, []>(9171008)))];
            tensor<fp16, [1]> caun_warp_conv1_bias_to_fp16 = const()[name = tensor<string, []>("caun_warp_conv1_bias_to_fp16"), val = tensor<fp16, [1]>([-0x1.fcp-4])];
…
            tensor<fp16, [1, 512, 960, 2]> grid_129_cast_fp16 = transpose(perm = var_7703, x = var_7702_cast_fp16)[name = tensor<string, []>("transpose_30")];
            tensor<fp16, [1, 3, 512, 960]> warped_img0_cast_fp16 = resample(align_corners = warped_img0_align_corners_0, coordinates = grid_129_cast_fp16, coordinates_format = tensor<string, []>("xy"), coordinates_mode = warped_img0_coordinates_mode_0, coordinates_type = tensor<string, []>("absolute"), padding_mode = warped_img0_padding_mode_0, padding_value = warped_img0_padding_value_0_to_fp16, sampling_mode = warped_img0_sampling_mode_0, x = img0)[name = tensor<string, []>("warped_img0_cast_fp16")];
            tensor<fp16, [1, 2, 1, 1]> var_7725_to_fp16 = const()[name = tensor<string, []>("op_7725_to_fp16"), val = tensor<fp16, [1, 2, 1, 1]>([[[[0x1.114p-9]], [[0x1.008p-8]]]])];
            tensor<fp16, [1, 2, 512, 960]> tenFlow_263_cast_fp16 = mul(x = tenFlow_261_cast_fp16, y = var_7725_to_fp16)[name = tensor<string, []>("tenFlow_263_cast_fp16")];
            tensor<fp16, [1, 2, 512, 960]> var_7727_cast_fp16 = add(x = objBackwarp_125_to_fp16, y = tenFlow_263_cast_fp16)[name = tensor<string, []>("op_7727_cast_fp16")];
            tensor<int32, [4]> var_7728 = const()[name = tensor<string, []>("op_7728"), val = tensor<int32, [4]>([0, 2, 3, 1])];
            tensor<string, []> warped_img1_sampling_mode_0 = const()[name = tensor<string, []>("warped_img1_sampling_mode_0"), val = tensor<string, []>("bilinear")];
            tensor<string, []> warped_img1_padding_mode_0 = const()[name = tensor<string, []>("warped_img1_padding_mode_0"), val = tensor<string, []>("reflection")];
            tensor<string, []> warped_img1_coordinates_mode_0 = const()[name = tensor<string, []>("warped_img1_coordinates_mode_0"), val = tensor<string, []>("normalized_minus_one_to_one")];
            tensor<bool, []> warped_img1_align_corners_0 = const()[name = tensor<string, []>("warped_img1_align_corners_0"), val = tensor<bool, []>(true)];
            tensor<fp16, []> warped_img1_padding_value_0_to_fp16 = const()[name = tensor<string, []>("warped_img1_padding_value_0_to_fp16"), val = tensor<fp16, []>(0x0p+0)];
            tensor<fp16, [1, 512, 960, 2]> grid_131_cast_fp16 = transpose(perm = var_7728, x = var_7727_cast_fp16)[name = tensor<string, []>("transpose_29")];
            tensor<fp16, [1, 3, 512, 960]> warped_img1_cast_fp16 = resample(align_corners = warped_img1_align_corners_0, coordinates = grid_131_cast_fp16, coordinates_format = tensor<string, []>("xy"), coordinates_mode = warped_img1_coordinates_mode_0, coordinates_type = tensor<string, []>("absolute"), padding_mode = warped_img1_padding_mode_0, padding_value = warped_img1_padding_value_0_to_fp16, sampling_mode = warped_img1_sampling_mode_0, x = img1)[name = tensor<string, []>("warped_img1_cast_fp16")];
            tensor<int32, [4]> tenFlow_269_begin_0 = const()[name = tensor<string, []>("tenFlow_269_begin_0"), val = tensor<int32, [4]>([0, 2, 0, 0])];
            tensor<int32, [4]> tenFlow_269_end_0 = const()[name = tensor<string, []>("tenFlow_269_end_0"), val = tensor<int32, [4]>([1, 1, 256, 480])];
            tensor<bool, [4]> tenFlow_269_end_mask_0 = const()[name = tensor<string, []>("tenFlow_269_end_mask_0"), val = tensor<bool, [4]>([true, true, true, true])];
            tensor<fp16, [1, 2, 256, 480]> tenFlow_269_cast_fp16 = slice_by_index(begin = tenFlow_269_begin_0, end = tenFlow_269_end_0, end_mask = tenFlow_269_end_mask_0, x = flow_x4_cast_fp16)[name = tensor<string, []>("tenFlow_269_cast_fp16")];
            tensor<string, []> input_1363_pad_type_0 = const()[name = tensor<string, []>("input_1363_pad_type_0"), val = tensor<string, []>("custom")];
            tensor<int32, [4]> input_1363_pad_0 = const()[name = tensor<string, []>("input_1363_pad_0"), val = tensor<int32, [4]>([1, 1, 1, 1])];
            tensor<int32, [2]> input_1363_strides_0 = const()[name = tensor<string, []>("input_1363_strides_0"), val = tensor<int32, [2]>([1, 1])];
            tensor<int32, [2]> input_1363_dilations_0 = const()[name = tensor<string, []>("input_1363_dilations_0"), val = tensor<int32, [2]>([1, 1])];
            tensor<int32, []> input_1363_groups_0 = const()[name = tensor<string, []>("input_1363_groups_0"), val = tensor<int32, []>(1)];
            tensor<fp16, [1, 16, 256, 480]> input_1363_cast_fp16 = conv(bias = sn_warp_conv0_bias_to_fp16, dilations = input_1363_dilations_0, groups = input_1363_groups_0, pad = input_1363_pad_0, pad_type = input_1363_pad_type_0, strides = input_1363_strides_0, weight = sn_warp_conv0_weight_to_fp16, x = var_6388_cast_fp16_0)[name = tensor<string, []>("input_1363_cast_fp16")];
            tensor<string, []> input_1365_pad_type_0 = const()[name = tensor<string, []>("input_1365_pad_type_0"), val = tensor<string, []>("custom")];
            tensor<int32, [4]> input_1365_pad_0 = const()[name = tensor<string, []>("input_1365_pad_0"), val = tensor<int32, [4]>([1, 1, 1, 1])];
            tensor<int32, [2]> input_1365_strides_0 = const()[name = tensor<string, []>("input_1365_strides_0"), val = tensor<int32, [2]>([1, 1])];
            tensor<int32, [2]> input_1365_dilations_0 = const()[name = tensor<string, []>("input_1365_dilations_0"), val = tensor<int32, [2]>([1, 1])];
            tensor<int32, []> input_1365_groups_0 = const()[name = tensor<string, []>("input_1365_groups_0"), val = tensor<int32, []>(1)];
            tensor<fp16, [1, 16, 256, 480]> input_1365_cast_fp16 = conv(bias = sn_warp_conv0_bias_to_fp16, dilations = input_1365_dilations_0, groups = input_1365_groups_0, pad = input_1365_pad_0, pad_type = input_1365_pad_type_0, strides = input_1365_strides_0, weight = sn_warp_conv0_weight_to_fp16, x = var_6388_cast_fp16_1)[name = tensor<string, []>("input_1365_cast_fp16")];
            tensor<fp16, [1, 2, 1, 1]> var_7768_to_fp16 = const()[name = tensor<string, []>("op_7768_to_fp16"), val = tensor<fp16, [1, 2, 1, 1]>([[[[0x1.11cp-8]], [[0x1.01p-7]]]])];
            tensor<fp16, [1, 2, 256, 480]> tenFlow_267_cast_fp16 = mul(x = x_269_cast_fp16, y = var_7768_to_fp16)[name = tensor<string, []>("tenFlow_267_cast_fp16")];
            tensor<fp16, [1, 2, 256, 480]> var_7770_cast_fp16 = add(x = objBackwarp_89_to_fp16, y = tenFlow_267_cast_fp16)[name = tensor<string, []>("op_7770_cast_fp16")];
            tensor<int32, [4]> var_7771 = const()[name = tensor<string, []>("op_7771"), val = tensor<int32, [4]>([0, 2, 3, 1])];
            tensor<string, []> var_7773_sampling_mode_0 = const()[name = tensor<string, []>("op_7773_sampling_mode_0"), val = tensor<string, []>("bilinear")];
            tensor<string, []> var_7773_padding_mode_0 = const()[name = tensor<string, []>("op_7773_padding_mode_0"), val = tensor<string, []>("reflection")];
            tensor<string, []> var_7773_coordinates_mode_0 = const()[name = tensor<string, []>("op_7773_coordinates_mode_0"), val = tensor<string, []>("normalized_minus_one_to_one")];
            tensor<bool, []> var_7773_align_corners_0 = const()[name = tensor<string, []>("op_7773_align_corners_0"), val = tensor<bool, []>(true)];
            tensor<fp16, []> var_7773_padding_value_0_to_fp16 = const()[name = tensor<string, []>("op_7773_padding_value_0_to_fp16"), val = tensor<fp16, []>(0x0p+0)];
            tensor<fp16, [1, 256, 480, 2]> grid_133_cast_fp16 = transpose(perm = var_7771, x = var_7770_cast_fp16)[name = tensor<string, []>("transpose_28")];
            tensor<fp16, [1, 16, 256, 480]> var_7773_cast_fp16 = resample(align_corners = var_7773_align_corners_0, coordinates = grid_133_cast_fp16, coordinates_format = tensor<string, []>("xy"), coordinates_mode = var_7773_coordinates_mode_0, coordinates_type = tensor<string, []>("absolute"), padding_mode = var_7773_padding_mode_0, padding_value = var_7773_padding_value_0_to_fp16, sampling_mode = var_7773_sampling_mode_0, x = input_1363_cast_fp16)[name = tensor<string, []>("op_7773_cast_fp16")];
            tensor<fp16, [1, 2, 1, 1]> var_7793_to_fp16 = const()[name = tensor<string, []>("op_7793_to_fp16"), val = tensor<fp16, [1, 2, 1, 1]>([[[[0x1.11cp-8]], [[0x1.01p-7]]]])];
            tensor<fp16, [1, 2, 256, 480]> tenFlow_271_cast_fp16 = mul(x = tenFlow_269_cast_fp16, y = var_7793_to_fp16)[name = tensor<string, []>("tenFlow_271_cast_fp16")];
            tensor<fp16, [1, 2, 256, 480]> var_7795_cast_fp16 = add(x = objBackwarp_89_to_fp16, y = tenFlow_271_cast_fp16)[name = tensor<string, []>("op_7795_cast_fp16")];
            tensor<int32, [4]> var_7796 = const()[name = tensor<string, []>("op_7796"), val = tensor<int32, [4]>([0, 2, 3, 1])];
            tensor<string, []> var_7798_sampling_mode_0 = const()[name = tensor<string, []>("op_7798_sampling_mode_0"), val = tensor<string, []>("bilinear")];
            tensor<string, []> var_7798_padding_mode_0 = const()[name = tensor<string, []>("op_7798_padding_mode_0"), val = tensor<string, []>("reflection")];
            tensor<string, []> var_7798_coordinates_mode_0 = const()[name = tensor<string, []>("op_7798_coordinates_mode_0"), val = tensor<string, []>("normalized_minus_one_to_one")];
            tensor<bool, []> var_7798_align_corners_0 = const()[name = tensor<string, []>("op_7798_align_corners_0"), val = tensor<bool, []>(true)];
            tensor<fp16, []> var_7798_padding_value_0_to_fp16 = const()[name = tensor<string, []>("op_7798_padding_value_0_to_fp16"), val = tensor<fp16, []>(0x0p+0)];
            tensor<fp16, [1, 256, 480, 2]> grid_135_cast_fp16 = transpose(perm = var_7796, x = var_7795_cast_fp16)[name = tensor<string, []>("transpose_27")];
            tensor<fp16, [1, 16, 256, 480]> var_7798_cast_fp16 = resample(align_corners = var_7798_align_corners_0, coordinates = grid_135_cast_fp16, coordinates_format = tensor<string, []>("xy"), coordinates_mode = var_7798_coordinates_mode_0, coordinates_type = tensor<string, []>("absolute"), padding_mode = var_7798_padding_mode_0, padding_value = var_7798_padding_value_0_to_fp16, sampling_mode = var_7798_sampling_mode_0, x = input_1365_cast_fp16)[name = tensor<string, []>("op_7798_cast_fp16")];
            tensor<int32, [4]> tenFlow_273_begin_0 = const()[name = tensor<string, []>("tenFlow_273_begin_0"), val = tensor<int32, [4]>([0, 0, 0, 0])];
            tensor<int32, [4]> tenFlow_273_end_0 = const()[name = tensor<string, []>("tenFlow_273_end_0"), val = tensor<int32, [4]>([1, 2, 128, 240])];
            tensor<bool, [4]> tenFlow_273_end_mask_0 = const()[name = tensor<string, []>("tenFlow_273_end_mask_0"), val = tensor<bool, [4]>([true, false, true, true])];
            tensor<fp16, [1, 2, 128, 240]> tenFlow_273_cast_fp16 = slice_by_index(begin = tenFlow_273_begin_0, end = tenFlow_273_end_0, end_mask = tenFlow_273_end_mask_0, x = bi_flow_cast_fp16)[name = tensor<string, []>("tenFlow_273_cast_fp16")];
            tensor<int32, [4]> tenFlow_277_begin_0 = const()[name = tensor<string, []>("tenFlow_277_begin_0"), val = tensor<int32, [4]>([0, 2, 0, 0])];
            tensor<int32, [4]> tenFlow_277_end_0 = const()[name = tensor<string, []>("tenFlow_277_end_0"), val = tensor<int32, [4]>([1, 1, 128, 240])];
            tensor<bool, [4]> tenFlow_277_end_mask_0 = const()[name = tensor<string, []>("tenFlow_277_end_mask_0"), val = tensor<bool, [4]>([true, true, true, true])];
            tensor<fp16, [1, 2, 128, 240]> tenFlow_277_cast_fp16 = slice_by_index(begin = tenFlow_277_begin_0, end = tenFlow_277_end_0, end_mask = tenFlow_277_end_mask_0, x = bi_flow_cast_fp16)[name = tensor<string, []>("tenFlow_277_cast_fp16")];
            tensor<string, []> input_1367_pad_type_0 = const()[name = tensor<string, []>("input_1367_pad_type_0"), val = tensor<string, []>("custom")];
            tensor<int32, [4]> input_1367_pad_0 = const()[name = tensor<string, []>("input_1367_pad_0"), val = tensor<int32, [4]>([1, 1, 1, 1])];
            tensor<int32, [2]> input_1367_strides_0 = const()[name = tensor<string, []>("input_1367_strides_0"), val = tensor<int32, [2]>([1, 1])];
            tensor<int32, [2]> input_1367_dilations_0 = const()[name = tensor<string, []>("input_1367_dilations_0"), val = tensor<int32, [2]>([1, 1])];
            tensor<int32, []> input_1367_groups_0 = const()[name = tensor<string, []>("input_1367_groups_0"), val = tensor<int32, []>(1)];
            tensor<fp16, [1, 16, 128, 240]> input_1367_cast_fp16 = conv(bias = sn_warp_conv1_bias_to_fp16, dilations = input_1367_dilations_0, groups = input_1367_groups_0, pad = input_1367_pad_0, pad_type = input_1367_pad_type_0, strides = input_1367_strides_0, weight = sn_warp_conv1_weight_to_fp16, x = var_6390_cast_fp16_0)[name = tensor<string, []>("input_1367_cast_fp16")];
            tensor<string, []> input_1369_pad_type_0 = const()[name = tensor<string, []>("input_1369_pad_type_0"), val = tensor<string, []>("custom")];
            tensor<int32, [4]> input_1369_pad_0 = const()[name = tensor<string, []>("input_1369_pad_0"), val = tensor<int32, [4]>([1, 1, 1, 1])];
            tensor<int32, [2]> input_1369_strides_0 = const()[name = tensor<string, []>("input_1369_strides_0"), val = tensor<int32, [2]>([1, 1])];
            tensor<int32, [2]> input_1369_dilations_0 = const()[name = tensor<string, []>("input_1369_dilations_0"), val = tensor<int32, [2]>([1, 1])];
            tensor<int32, []> input_1369_groups_0 = const()[name = tensor<string, []>("input_1369_groups_0"), val = tensor<int32, []>(1)];
            tensor<fp16, [1, 16, 128, 240]> input_1369_cast_fp16 = conv(bias = sn_warp_conv1_bias_to_fp16, dilations = input_1369_dilations_0, groups = input_1369_groups_0, pad = input_1369_pad_0, pad_type = input_1369_pad_type_0, strides = input_1369_strides_0, weight = sn_warp_conv1_weight_to_fp16, x = var_6390_cast_fp16_1)[name = tensor<string, []>("input_1369_cast_fp16")];
            tensor<fp16, [1, 2, 1, 1]> var_7836_to_fp16 = const()[name = tensor<string, []>("op_7836_to_fp16"), val = tensor<fp16, [1, 2, 1, 1]>([[[[0x1.124p-7]], [[0x1.02p-6]]]])];
            tensor<fp16, [1, 2, 128, 240]> tenFlow_275_cast_fp16 = mul(x = tenFlow_273_cast_fp16, y = var_7836_to_fp16)[name = tensor<string, []>("tenFlow_275_cast_fp16")];
            tensor<fp16, [1, 2, 128, 240]> var_7838_cast_fp16 = add(x = objBackwarp_53_to_fp16, y = tenFlow_275_cast_fp16)[name = tensor<string, []>("op_7838_cast_fp16")];
            tensor<int32, [4]> var_7839 = const()[name = tensor<string, []>("op_7839"), val = tensor<int32, [4]>([0, 2, 3, 1])];
            tensor<string, []> var_7841_sampling_mode_0 = const()[name = tensor<string, []>("op_7841_sampling_mode_0"), val = tensor<string, []>("bilinear")];
            tensor<string, []> var_7841_padding_mode_0 = const()[name = tensor<string, []>("op_7841_padding_mode_0"), val = tensor<string, []>("reflection")];
            tensor<string, []> var_7841_coordinates_mode_0 = const()[name = tensor<string, []>("op_7841_coordinates_mode_0"), val = tensor<string, []>("normalized_minus_one_to_one")];
            tensor<bool, []> var_7841_align_corners_0 = const()[name = tensor<string, []>("op_7841_align_corners_0"), val = tensor<bool, []>(true)];
            tensor<fp16, []> var_7841_padding_value_0_to_fp16 = const()[name = tensor<string, []>("op_7841_padding_value_0_to_fp16"), val = tensor<fp16, []>(0x0p+0)];
            tensor<fp16, [1, 128, 240, 2]> grid_137_cast_fp16 = transpose(perm = var_7839, x = var_7838_cast_fp16)[name = tensor<string, []>("transpose_26")];
            tensor<fp16, [1, 16, 128, 240]> var_7841_cast_fp16 = resample(align_corners = var_7841_align_corners_0, coordinates = grid_137_cast_fp16, coordinates_format = tensor<string, []>("xy"), coordinates_mode = var_7841_coordinates_mode_0, coordinates_type = tensor<string, []>("absolute"), padding_mode = var_7841_padding_mode_0, padding_value = var_7841_padding_value_0_to_fp16, sampling_mode = var_7841_sampling_mode_0, x = input_1367_cast_fp16)[name = tensor<string, []>("op_7841_cast_fp16")];
            tensor<fp16, [1, 2, 1, 1]> var_7861_to_fp16 = const()[name = tensor<string, []>("op_7861_to_fp16"), val = tensor<fp16, [1, 2, 1, 1]>([[[[0x1.124p-7]], [[0x1.02p-6]]]])];
            tensor<fp16, [1, 2, 128, 240]> tenFlow_279_cast_fp16 = mul(x = tenFlow_277_cast_fp16, y = var_7861_to_fp16)[name = tensor<string, []>("tenFlow_279_cast_fp16")];
            tensor<fp16, [1, 2, 128, 240]> var_7863_cast_fp16 = add(x = objBackwarp_53_to_fp16, y = tenFlow_279_cast_fp16)[name = tensor<string, []>("op_7863_cast_fp16")];
            tensor<int32, [4]> var_7864 = const()[name = tensor<string, []>("op_7864"), val = tensor<int32, [4]>([0, 2, 3, 1])];
            tensor<string, []> var_7866_sampling_mode_0 = const()[name = tensor<string, []>("op_7866_sampling_mode_0"), val = tensor<string, []>("bilinear")];
            tensor<string, []> var_7866_padding_mode_0 = const()[name = tensor<string, []>("op_7866_padding_mode_0"), val = tensor<string, []>("reflection")];
            tensor<string, []> var_7866_coordinates_mode_0 = const()[name = tensor<string, []>("op_7866_coordinates_mode_0"), val = tensor<string, []>("normalized_minus_one_to_one")];
            tensor<bool, []> var_7866_align_corners_0 = const()[name = tensor<string, []>("op_7866_align_corners_0"), val = tensor<bool, []>(true)];
            tensor<fp16, []> var_7866_padding_value_0_to_fp16 = const()[name = tensor<string, []>("op_7866_padding_value_0_to_fp16"), val = tensor<fp16, []>(0x0p+0)];
            tensor<fp16, [1, 128, 240, 2]> grid_139_cast_fp16 = transpose(perm = var_7864, x = var_7863_cast_fp16)[name = tensor<string, []>("transpose_25")];
            tensor<fp16, [1, 16, 128, 240]> var_7866_cast_fp16 = resample(align_corners = var_7866_align_corners_0, coordinates = grid_139_cast_fp16, coordinates_format = tensor<string, []>("xy"), coordinates_mode = var_7866_coordinates_mode_0, coordinates_type = tensor<string, []>("absolute"), padding_mode = var_7866_padding_mode_0, padding_value = var_7866_padding_value_0_to_fp16, sampling_mode = var_7866_sampling_mode_0, x = input_1369_cast_fp16)[name = tensor<string, []>("op_7866_cast_fp16")];
            tensor<int32, [4]> tenFlow_285_begin_0 = const()[name = tensor<string, []>("tenFlow_285_begin_0"), val = tensor<int32, [4]>([0, 2, 0, 0])];
            tensor<int32, [4]> tenFlow_285_end_0 = const()[name = tensor<string, []>("tenFlow_285_end_0"), val = tensor<int32, [4]>([1, 1, 64, 120])];
            tensor<bool, [4]> tenFlow_285_end_mask_0 = const()[name = tensor<string, []>("tenFlow_285_end_mask_0"), val = tensor<bool, [4]>([true, true, true, true])];
            tensor<fp16, [1, 2, 64, 120]> tenFlow_285_cast_fp16 = slice_by_index(begin = tenFlow_285_begin_0, end = tenFlow_285_end_0, end_mask = tenFlow_285_end_mask_0, x = flow_cast_fp16)[name = tensor<string, []>("tenFlow_285_cast_fp16")];
            tensor<string, []> input_1371_pad_type_0 = const()[name = tensor<string, []>("input_1371_pad_type_0"), val = tensor<string, []>("custom")];
            tensor<int32, [4]> input_1371_pad_0 = const()[name = tensor<string, []>("input_1371_pad_0"), val = tensor<int32, [4]>([1, 1, 1, 1])];
            tensor<int32, [2]> input_1371_strides_0 = const()[name = tensor<string, []>("input_1371_strides_0"), val = tensor<int32, [2]>([1, 1])];
            tensor<int32, [2]> input_1371_dilations_0 = const()[name = tensor<string, []>("input_1371_dilations_0"), val = tensor<int32, [2]>([1, 1])];
            tensor<int32, []> input_1371_groups_0 = const()[name = tensor<string, []>("input_1371_groups_0"), val = tensor<int32, []>(1)];
            tensor<fp16, [1, 16, 64, 120]> input_1371_cast_fp16 = conv(bias = sn_warp_conv2_bias_to_fp16, dilations = input_1371_dilations_0, groups = input_1371_groups_0, pad = input_1371_pad_0, pad_type = input_1371_pad_type_0, strides = input_1371_strides_0, weight = sn_warp_conv2_weight_to_fp16, x = var_6392_cast_fp16_0)[name = tensor<string, []>("input_1371_cast_fp16")];
            tensor<string, []> input_1373_pad_type_0 = const()[name = tensor<string, []>("input_1373_pad_type_0"), val = tensor<string, []>("custom")];
            tensor<int32, [4]> input_1373_pad_0 = const()[name = tensor<string, []>("input_1373_pad_0"), val = tensor<int32, [4]>([1, 1, 1, 1])];
            tensor<int32, [2]> input_1373_strides_0 = const()[name = tensor<string, []>("input_1373_strides_0"), val = tensor<int32, [2]>([1, 1])];
            tensor<int32, [2]> input_1373_dilations_0 = const()[name = tensor<string, []>("input_1373_dilations_0"), val = tensor<int32, [2]>([1, 1])];
            tensor<int32, []> input_1373_groups_0 = const()[name = tensor<string, []>("input_1373_groups_0"), val = tensor<int32, []>(1)];
            tensor<fp16, [1, 16, 64, 120]> input_1373_cast_fp16 = conv(bias = sn_warp_conv2_bias_to_fp16, dilations = input_1373_dilations_0, groups = input_1373_groups_0, pad = input_1373_pad_0, pad_type = input_1373_pad_type_0, strides = input_1373_strides_0, weight = sn_warp_conv2_weight_to_fp16, x = var_6392_cast_fp16_1)[name = tensor<string, []>("input_1373_cast_fp16")];
            tensor<string, []> var_7909_sampling_mode_0 = const()[name = tensor<string, []>("op_7909_sampling_mode_0"), val = tensor<string, []>("bilinear")];
            tensor<string, []> var_7909_padding_mode_0 = const()[name = tensor<string, []>("op_7909_padding_mode_0"), val = tensor<string, []>("reflection")];
            tensor<string, []> var_7909_coordinates_mode_0 = const()[name = tensor<string, []>("op_7909_coordinates_mode_0"), val = tensor<string, []>("normalized_minus_one_to_one")];
            tensor<bool, []> var_7909_align_corners_0 = const()[name = tensor<string, []>("op_7909_align_corners_0"), val = tensor<bool, []>(true)];
            tensor<fp16, []> var_7909_padding_value_0_to_fp16 = const()[name = tensor<string, []>("op_7909_padding_value_0_to_fp16"), val = tensor<fp16, []>(0x0p+0)];
            tensor<fp16, [1, 16, 64, 120]> var_7909_cast_fp16 = resample(align_corners = var_7909_align_corners_0, coordinates = grid_121_cast_fp16, coordinates_format = tensor<string, []>("xy"), coordinates_mode = var_7909_coordinates_mode_0, coordinates_type = tensor<string, []>("absolute"), padding_mode = var_7909_padding_mode_0, padding_value = var_7909_padding_value_0_to_fp16, sampling_mode = var_7909_sampling_mode_0, x = input_1371_cast_fp16)[name = tensor<string, []>("op_7909_cast_fp16")];
            tensor<fp16, [1, 2, 1, 1]> var_7929_to_fp16 = const()[name = tensor<string, []>("op_7929_to_fp16"), val = tensor<fp16, [1, 2, 1, 1]>([[[[0x1.134p-6]], [[0x1.04p-5]]]])];
            tensor<fp16, [1, 2, 64, 120]> tenFlow_cast_fp16 = mul(x = tenFlow_285_cast_fp16, y = var_7929_to_fp16)[name = tensor<string, []>("tenFlow_cast_fp16")];
            tensor<fp16, [1, 2, 64, 120]> var_7931_cast_fp16 = add(x = objBackwarp_17_to_fp16, y = tenFlow_cast_fp16)[name = tensor<string, []>("op_7931_cast_fp16")];
            tensor<int32, [4]> var_7932 = const()[name = tensor<string, []>("op_7932"), val = tensor<int32, [4]>([0, 2, 3, 1])];
            tensor<string, []> var_7934_sampling_mode_0 = const()[name = tensor<string, []>("op_7934_sampling_mode_0"), val = tensor<string, []>("bilinear")];
            tensor<string, []> var_7934_padding_mode_0 = const()[name = tensor<string, []>("op_7934_padding_mode_0"), val = tensor<string, []>("reflection")];
            tensor<string, []> var_7934_coordinates_mode_0 = const()[name = tensor<string, []>("op_7934_coordinates_mode_0"), val = tensor<string, []>("normalized_minus_one_to_one")];
            tensor<bool, []> var_7934_align_corners_0 = const()[name = tensor<string, []>("op_7934_align_corners_0"), val = tensor<bool, []>(true)];
            tensor<fp16, []> var_7934_padding_value_0_to_fp16 = const()[name = tensor<string, []>("op_7934_padding_value_0_to_fp16"), val = tensor<fp16, []>(0x0p+0)];
            tensor<fp16, [1, 64, 120, 2]> grid_cast_fp16 = transpose(perm = var_7932, x = var_7931_cast_fp16)[name = tensor<string, []>("transpose_24")];
            tensor<fp16, [1, 16, 64, 120]> var_7934_cast_fp16 = resample(align_corners = var_7934_align_corners_0, coordinates = grid_cast_fp16, coordinates_format = tensor<string, []>("xy"), coordinates_mode = var_7934_coordinates_mode_0, coordinates_type = tensor<string, []>("absolute"), padding_mode = var_7934_padding_mode_0, padding_value = var_7934_padding_value_0_to_fp16, sampling_mode = var_7934_sampling_mode_0, x = input_1373_cast_fp16)[name = tensor<string, []>("op_7934_cast_fp16")];
            tensor<bool, []> input_1375_interleave_0 = const()[name = tensor<string, []>("input_1375_interleave_0"), val = tensor<bool, []>(false)];
            tensor<fp16, [1, 7, 512, 960]> input_1375_cast_fp16 = concat(axis = var_7664, interleave = input_1375_interleave_0, values = (warped_img0_cast_fp16, warped_img1_cast_fp16, occl_13_cast_fp16))[name = tensor<string, []>("input_1375_cast_fp16")];
            tensor<uint32, []> input_1377_downscale_factor_0 = const()[name = tensor<string, []>("input_1377_downscale_factor_0"), val = tensor<uint32, []>(2)];
            tensor<fp16, [1, 28, 256, 480]> input_1377_cast_fp16 = pixel_unshuffle(downscale_factor = input_1377_downscale_factor_0, x = input_1375_cast_fp16)[name = tensor<string, []>("input_1377_cast_fp16")];
            tensor<string, []> input_1379_pad_type_0 = const()[name = tensor<string, []>("input_1379_pad_type_0"), val = tensor<string, []>("custom")];
            tensor<int32, [4]> input_1379_pad_0 = const()[name = tensor<string, []>("input_1379_pad_0"), val = tensor<int32, [4]>([2, 2, 2, 2])];
            tensor<int32, [2]> input_1379_strides_0 = const()[name = tensor<string, []>("input_1379_strides_0"), val = tensor<int32, [2]>([1, 1])];
            tensor<int32, [2]> input_1379_dilations_0 = const()[name = tensor<string, []>("input_1379_dilations_0"), val = tensor<int32, [2]>([1, 1])];
            tensor<int32, []> input_1379_groups_0 = const()[name = tensor<string, []>("input_1379_groups_0"), val = tensor<int32, []>(1)];
            tensor<fp16, [1, 16, 256, 480]> input_1379_cast_fp16 = conv(bias = sn_conv_dn1_1_bias_to_fp16, dilations = input_1379_dilations_0, groups = input_1379_groups_0, pad = input_1379_pad_0, pad_type = input_1379_pad_type_0, strides = input_1379_strides_0, weight = sn_conv_dn1_1_weight_to_fp16, x = input_1377_cast_fp16)[name = tensor<string, []>("input_1379_cast_fp16")];
            tensor<fp16, [16]> input_1381_alpha_0_to_fp16 = const()[name = tensor<string, []>("input_1381_alpha_0_to_fp16"), val = tensor<fp16, [16]>(BLOBFILE(path = tensor<string, []>("@model_path/weights/weight.bin"), offset = tensor<uint64, []>(12713408)))];
            tensor<fp16, [1, 16, 256, 480]> input_1381_cast_fp16 = prelu(alpha = input_1381_alpha_0_to_fp16, x = input_1379_cast_fp16)[name = tensor<string, []>("input_1381_cast_fp16")];
            tensor<string, []> input_1383_pad_type_0 = const()[name = tensor<string, []>("input_1383_pad_type_0"), val = tensor<string, []>("custom")];
            tensor<int32, [4]> input_1383_pad_0 = const()[name = tensor<string, []>("input_1383_pad_0"), val = tensor<int32, [4]>([1, 1, 1, 1])];
            tensor<int32, [2]> input_1383_strides_0 = const()[name = tensor<string, []>("input_1383_strides_0"), val = tensor<int32, [2]>([1, 1])];
            tensor<int32, [2]> input_1383_dilations_0 = const()[name = tensor<string, []>("input_1383_dilations_0"), val = tensor<int32, [2]>([1, 1])];
            tensor<int32, []> input_1383_groups_0 = const()[name = tensor<string, []>("input_1383_groups_0"), val = tensor<int32, []>(1)];
            tensor<fp16, [1, 16, 256, 480]> input_1383_cast_fp16 = conv(bias = sn_conv_dn1_3_bias_to_fp16, dilations = input_1383_dilations_0, groups = input_1383_groups_0, pad = input_1383_pad_0, pad_type = input_1383_pad_type_0, strides = input_1383_strides_0, weight = sn_conv_dn1_3_weight_to_fp16, x = input_1381_cast_fp16)[name = tensor<string, []>("input_1383_cast_fp16")];
            tensor<fp16, [16]> s0_alpha_0_to_fp16 = const()[name = tensor<string, []>("s0_alpha_0_to_fp16"), val = tensor<fp16, [16]>(BLOBFILE(path = tensor<string, []>("@model_path/weights/weight.bin"), offset = tensor<uint64, []>(12713536)))];
            tensor<fp16, [1, 16, 256, 480]> s0_cast_fp16 = prelu(alpha = s0_alpha_0_to_fp16, x = input_1383_cast_fp16)[name = tensor<string, []>("s0_cast_fp16")];
            tensor<bool, []> input_1385_interleave_0 = const()[name = tensor<string, []>("input_1385_interleave_0"), val = tensor<bool, []>(false)];
            tensor<fp16, [1, 48, 256, 480]> input_1385_cast_fp16 = concat(axis = var_7664, interleave = input_1385_interleave_0, values = (s0_cast_fp16, var_7773_cast_fp16, var_7798_cast_fp16))[name = tensor<string, []>("input_1385_cast_fp16")];
            tensor<string, []> input_1387_pad_type_0 = const()[name = tensor<string, []>("input_1387_pad_type_0"), val = tensor<string, []>("valid")];
            tensor<int32, [2]> input_1387_strides_0 = const()[name = tensor<string, []>("input_1387_strides_0"), val = tensor<int32, [2]>([2, 2])];
            tensor<int32, [4]> input_1387_pad_0 = const()[name = tensor<string, []>("input_1387_pad_0"), val = tensor<int32, [4]>([0, 0, 0, 0])];
            tensor<int32, [2]> input_1387_dilations_0 = const()[name = tensor<string, []>("input_1387_dilations_0"), val = tensor<int32, [2]>([1, 1])];
            tensor<int32, []> input_1387_groups_0 = const()[name = tensor<string, []>("input_1387_groups_0"), val = tensor<int32, []>(1)];
            tensor<fp16, [1, 16, 128, 240]> input_1387_cast_fp16 = conv(bias = sn_conv_dn2_0_bias_to_fp16, dilations = input_1387_dilations_0, groups = input_1387_groups_0, pad = input_1387_pad_0, pad_type = input_1387_pad_type_0, strides = input_1387_strides_0, weight = sn_conv_dn2_0_weight_to_fp16, x = input_1385_cast_fp16)[name = tensor<string, []>("input_1387_cast_fp16")];
            tensor<fp16, [16]> input_1389_alpha_0_to_fp16 = const()[name = tensor<string, []>("input_1389_alpha_0_to_fp16"), val = tensor<fp16, [16]>(BLOBFILE(path = tensor<string, []>("@model_path/weights/weight.bin"), offset = tensor<uint64, []>(12713664)))];
            tensor<fp16, [1, 16, 128, 240]> input_1389_cast_fp16 = prelu(alpha = input_1389_alpha_0_to_fp16, x = input_1387_cast_fp16)[name = tensor<string, []>("input_1389_cast_fp16")];
            tensor<string, []> input_1391_pad_type_0 = const()[name = tensor<string, []>("input_1391_pad_type_0"), val = tensor<string, []>("custom")];
            tensor<int32, [4]> input_1391_pad_0 = const()[name = tensor<string, []>("input_1391_pad_0"), val = tensor<int32, [4]>([1, 1, 1, 1])];
            tensor<int32, [2]> input_1391_strides_0 = const()[name = tensor<string, []>("input_1391_strides_0"), val = tensor<int32, [2]>([1, 1])];
            tensor<int32, [2]> input_1391_dilations_0 = const()[name = tensor<string, []>("input_1391_dilations_0"), val = tensor<int32, [2]>([1, 1])];
            tensor<int32, []> input_1391_groups_0 = const()[name = tensor<string, []>("input_1391_groups_0"), val = tensor<int32, []>(1)];
            tensor<fp16, [1, 16, 128, 240]> input_1391_cast_fp16 = conv(bias = sn_conv_dn2_2_bias_to_fp16, dilations = input_1391_dilations_0, groups = input_1391_groups_0, pad = input_1391_pad_0, pad_type = input_1391_pad_type_0, strides = input_1391_strides_0, weight = sn_conv_dn2_2_weight_to_fp16, x = input_1389_cast_fp16)[name = tensor<string, []>("input_1391_cast_fp16")];
            tensor<fp16, [16]> s1_alpha_0_to_fp16 = const()[name = tensor<string, []>("s1_alpha_0_to_fp16"), val = tensor<fp16, [16]>(BLOBFILE(path = tensor<string, []>("@model_path/weights/weight.bin"), offset = tensor<uint64, []>(12713792)))];
            tensor<fp16, [1, 16, 128, 240]> s1_cast_fp16 = prelu(alpha = s1_alpha_0_to_fp16, x = input_1391_cast_fp16)[name = tensor<string, []>("s1_cast_fp16")];
            tensor<bool, []> input_1393_interleave_0 = const()[name = tensor<string, []>("input_1393_interleave_0"), val = tensor<bool, []>(false)];
            tensor<fp16, [1, 48, 128, 240]> input_1393_cast_fp16 = concat(axis = var_7664, interleave = input_1393_interleave_0, values = (s1_cast_fp16, var_7841_cast_fp16, var_7866_cast_fp16))[name = tensor<string, []>("input_1393_cast_fp16")];
            tensor<string, []> input_1395_pad_type_0 = const()[name = tensor<string, []>("input_1395_pad_type_0"), val = tensor<string, []>("valid")];
            tensor<int32, [2]> input_1395_strides_0 = const()[name = tensor<string, []>("input_1395_strides_0"), val = tensor<int32, [2]>([2, 2])];
            tensor<int32, [4]> input_1395_pad_0 = const()[name = tensor<string, []>("input_1395_pad_0"), val = tensor<int32, [4]>([0, 0, 0, 0])];
            tensor<int32, [2]> input_1395_dilations_0 = const()[name = tensor<string, []>("input_1395_dilations_0"), val = tensor<int32, [2]>([1, 1])];
            tensor<int32, []> input_1395_groups_0 = const()[name = tensor<string, []>("input_1395_groups_0"), val = tensor<int32, []>(1)];
            tensor<fp16, [1, 32, 64, 120]> input_1395_cast_fp16 = conv(bias = sn_conv_dn3_0_bias_to_fp16, dilations = input_1395_dilations_0, groups = input_1395_groups_0, pad = input_1395_pad_0, pad_type = input_1395_pad_type_0, strides = input_1395_strides_0, weight = sn_conv_dn3_0_weight_to_fp16, x = input_1393_cast_fp16)[name = tensor<string, []>("input_1395_cast_fp16")];
            tensor<fp16, [32]> input_1397_alpha_0_to_fp16 = const()[name = tensor<string, []>("input_1397_alpha_0_to_fp16"), val = tensor<fp16, [32]>(BLOBFILE(path = tensor<string, []>("@model_path/weights/weight.bin"), offset = tensor<uint64, []>(12713920)))];
            tensor<fp16, [1, 32, 64, 120]> input_1397_cast_fp16 = prelu(alpha = input_1397_alpha_0_to_fp16, x = input_1395_cast_fp16)[name = tensor<string, []>("input_1397_cast_fp16")];
            tensor<string, []> input_1399_pad_type_0 = const()[name = tensor<string, []>("input_1399_pad_type_0"), val = tensor<string, []>("custom")];
            tensor<int32, [4]> input_1399_pad_0 = const()[name = tensor<string, []>("input_1399_pad_0"), val = tensor<int32, [4]>([1, 1, 1, 1])];
            tensor<int32, [2]> input_1399_strides_0 = const()[name = tensor<string, []>("input_1399_strides_0"), val = tensor<int32, [2]>([1, 1])];
            tensor<int32, [2]> input_1399_dilations_0 = const()[name = tensor<string, []>("input_1399_dilations_0"), val = tensor<int32, [2]>([1, 1])];
            tensor<int32, []> input_1399_groups_0 = const()[name = tensor<string, []>("input_1399_groups_0"), val = tensor<int32, []>(1)];
            tensor<fp16, [1, 32, 64, 120]> input_1399_cast_fp16 = conv(bias = sn_conv_dn3_2_bias_to_fp16, dilations = input_1399_dilations_0, groups = input_1399_groups_0, pad = input_1399_pad_0, pad_type = input_1399_pad_type_0, strides = input_1399_strides_0, weight = sn_conv_dn3_2_weight_to_fp16, x = input_1397_cast_fp16)[name = tensor<string, []>("input_1399_cast_fp16")];
            tensor<fp16, [32]> s2_alpha_0_to_fp16 = const()[name = tensor<string, []>("s2_alpha_0_to_fp16"), val = tensor<fp16, [32]>(BLOBFILE(path = tensor<string, []>("@model_path/weights/weight.bin"), offset = tensor<uint64, []>(12714048)))];
            tensor<fp16, [1, 32, 64, 120]> s2_cast_fp16 = prelu(alpha = s2_alpha_0_to_fp16, x = input_1399_cast_fp16)[name = tensor<string, []>("s2_cast_fp16")];
            tensor<bool, []> input_1401_interleave_0 = const()[name = tensor<string, []>("input_1401_interleave_0"), val = tensor<bool, []>(false)];
            tensor<fp16, [1, 64, 64, 120]> input_1401_cast_fp16 = concat(axis = var_7664, interleave = input_1401_interleave_0, values = (s2_cast_fp16, var_7909_cast_fp16, var_7934_cast_fp16))[name = tensor<string, []>("input_1401_cast_fp16")];
            tensor<string, []> input_1403_pad_type_0 = const()[name = tensor<string, []>("input_1403_pad_type_0"), val = tensor<string, []>("custom")];
            tensor<int32, [4]> input_1403_pad_0 = const()[name = tensor<string, []>("input_1403_pad_0"), val = tensor<int32, [4]>([1, 1, 1, 1])];
            tensor<int32, [2]> input_1403_strides_0 = const()[name = tensor<string, []>("input_1403_strides_0"), val = tensor<int32, [2]>([1, 1])];
            tensor<int32, [2]> input_1403_dilations_0 = const()[name = tensor<string, []>("input_1403_dilations_0"), val = tensor<int32, [2]>([1, 1])];
            tensor<int32, []> input_1403_groups_0 = const()[name = tensor<string, []>("input_1403_groups_0"), val = tensor<int32, []>(1)];
            tensor<fp16, [1, 64, 64, 120]> input_1403_cast_fp16 = conv(bias = sn_conv_up1_0_bias_to_fp16, dilations = input_1403_dilations_0, groups = input_1403_groups_0, pad = input_1403_pad_0, pad_type = input_1403_pad_type_0, strides = input_1403_strides_0, weight = sn_conv_up1_0_weight_to_fp16, x = input_1401_cast_fp16)[name = tensor<string, []>("input_1403_cast_fp16")];
            tensor<fp16, [1, 16, 128, 240]> input_1405_cast_fp16 = pixel_shuffle(upscale_factor = var_7663, x = input_1403_cast_fp16)[name = tensor<string, []>("input_1405_cast_fp16")];
            tensor<fp16, [16]> input_1407_alpha_0_to_fp16 = const()[name = tensor<string, []>("input_1407_alpha_0_to_fp16"), val = tensor<fp16, [16]>(BLOBFILE(path = tensor<string, []>("@model_path/weights/weight.bin"), offset = tensor<uint64, []>(12714176)))];
            tensor<fp16, [1, 16, 128, 240]> input_1407_cast_fp16 = prelu(alpha = input_1407_alpha_0_to_fp16, x = input_1405_cast_fp16)[name = tensor<string, []>("input_1407_cast_fp16")];
            tensor<string, []> input_1409_pad_type_0 = const()[name = tensor<string, []>("input_1409_pad_type_0"), val = tensor<string, []>("custom")];
            tensor<int32, [4]> input_1409_pad_0 = const()[name = tensor<string, []>("input_1409_pad_0"), val = tensor<int32, [4]>([1, 1, 1, 1])];
            tensor<int32, [2]> input_1409_strides_0 = const()[name = tensor<string, []>("input_1409_strides_0"), val = tensor<int32, [2]>([1, 1])];
            tensor<int32, [2]> input_1409_dilations_0 = const()[name = tensor<string, []>("input_1409_dilations_0"), val = tensor<int32, [2]>([1, 1])];
            tensor<int32, []> input_1409_groups_0 = const()[name = tensor<string, []>("input_1409_groups_0"), val = tensor<int32, []>(1)];
            tensor<fp16, [1, 16, 128, 240]> input_1409_cast_fp16 = conv(bias = sn_conv_up1_3_bias_to_fp16, dilations = input_1409_dilations_0, groups = input_1409_groups_0, pad = input_1409_pad_0, pad_type = input_1409_pad_type_0, strides = input_1409_strides_0, weight = sn_conv_up1_3_weight_to_fp16, x = input_1407_cast_fp16)[name = tensor<string, []>("input_1409_cast_fp16")];
            tensor<fp16, [16]> x_285_alpha_0_to_fp16 = const()[name = tensor<string, []>("x_285_alpha_0_to_fp16"), val = tensor<fp16, [16]>(BLOBFILE(path = tensor<string, []>("@model_path/weights/weight.bin"), offset = tensor<uint64, []>(12714304)))];
            tensor<fp16, [1, 16, 128, 240]> x_285_cast_fp16 = prelu(alpha = x_285_alpha_0_to_fp16, x = input_1409_cast_fp16)[name = tensor<string, []>("x_285_cast_fp16")];
            tensor<bool, []> input_1411_interleave_0 = const()[name = tensor<string, []>("input_1411_interleave_0"), val = tensor<bool, []>(false)];
            tensor<fp16, [1, 32, 128, 240]> input_1411_cast_fp16 = concat(axis = var_7664, interleave = input_1411_interleave_0, values = (x_285_cast_fp16, s1_cast_fp16))[name = tensor<string, []>("input_1411_cast_fp16")];
            tensor<string, []> input_1413_pad_type_0 = const()[name = tensor<string, []>("input_1413_pad_type_0"), val = tensor<string, []>("custom")];
            tensor<int32, [4]> input_1413_pad_0 = const()[name = tensor<string, []>("input_1413_pad_0"), val = tensor<int32, [4]>([1, 1, 1, 1])];
            tensor<int32, [2]> input_1413_strides_0 = const()[name = tensor<string, []>("input_1413_strides_0"), val = tensor<int32, [2]>([1, 1])];
            tensor<int32, [2]> input_1413_dilations_0 = const()[name = tensor<string, []>("input_1413_dilations_0"), val = tensor<int32, [2]>([1, 1])];
            tensor<int32, []> input_1413_groups_0 = const()[name = tensor<string, []>("input_1413_groups_0"), val = tensor<int32, []>(1)];
            tensor<fp16, [1, 64, 128, 240]> input_1413_cast_fp16 = conv(bias = sn_conv_up2_0_bias_to_fp16, dilations = input_1413_dilations_0, groups = input_1413_groups_0, pad = input_1413_pad_0, pad_type = input_1413_pad_type_0, strides = input_1413_strides_0, weight = sn_conv_up2_0_weight_to_fp16, x = input_1411_cast_fp16)[name = tensor<string, []>("input_1413_cast_fp16")];
            tensor<fp16, [1, 16, 256, 480]> input_1415_cast_fp16 = pixel_shuffle(upscale_factor = var_7663, x = input_1413_cast_fp16)[name = tensor<string, []>("input_1415_cast_fp16")];
            tensor<fp16, [16]> input_1417_alpha_0_to_fp16 = const()[name = tensor<string, []>("input_1417_alpha_0_to_fp16"), val = tensor<fp16, [16]>(BLOBFILE(path = tensor<string, []>("@model_path/weights/weight.bin"), offset = tensor<uint64, []>(12714432)))];
            tensor<fp16, [1, 16, 256, 480]> input_1417_cast_fp16 = prelu(alpha = input_1417_alpha_0_to_fp16, x = input_1415_cast_fp16)[name = tensor<string, []>("input_1417_cast_fp16")];
            tensor<string, []> input_1419_pad_type_0 = const()[name = tensor<string, []>("input_1419_pad_type_0"), val = tensor<string, []>("custom")];
            tensor<int32, [4]> input_1419_pad_0 = const()[name = tensor<string, []>("input_1419_pad_0"), val = tensor<int32, [4]>([1, 1, 1, 1])];
            tensor<int32, [2]> input_1419_strides_0 = const()[name = tensor<string, []>("input_1419_strides_0"), val = tensor<int32, [2]>([1, 1])];
            tensor<int32, [2]> input_1419_dilations_0 = const()[name = tensor<string, []>("input_1419_dilations_0"), val = tensor<int32, [2]>([1, 1])];
            tensor<int32, []> input_1419_groups_0 = const()[name = tensor<string, []>("input_1419_groups_0"), val = tensor<int32, []>(1)];
            tensor<fp16, [1, 16, 256, 480]> input_1419_cast_fp16 = conv(bias = sn_conv_up2_3_bias_to_fp16, dilations = input_1419_dilations_0, groups = input_1419_groups_0, pad = input_1419_pad_0, pad_type = input_1419_pad_type_0, strides = input_1419_strides_0, weight = sn_conv_up2_3_weight_to_fp16, x = input_1417_cast_fp16)[name = tensor<string, []>("input_1419_cast_fp16")];
            tensor<fp16, [16]> x_alpha_0_to_fp16 = const()[name = tensor<string, []>("x_alpha_0_to_fp16"), val = tensor<fp16, [16]>(BLOBFILE(path = tensor<string, []>("@model_path/weights/weight.bin"), offset = tensor<uint64, []>(12714560)))];
            tensor<fp16, [1, 16, 256, 480]> x_cast_fp16 = prelu(alpha = x_alpha_0_to_fp16, x = input_1419_cast_fp16)[name = tensor<string, []>("x_cast_fp16")];
            tensor<bool, []> input_1421_interleave_0 = const()[name = tensor<string, []>("input_1421_interleave_0"), val = tensor<bool, []>(false)];
            tensor<fp16, [1, 32, 256, 480]> input_1421_cast_fp16 = concat(axis = var_7664, interleave = input_1421_interleave_0, values = (x_cast_fp16, s0_cast_fp16))[name = tensor<string, []>("input_1421_cast_fp16")];
            tensor<string, []> input_1423_pad_type_0 = const()[name = tensor<string, []>("input_1423_pad_type_0"), val = tensor<string, []>("custom")];
            tensor<int32, [4]> input_1423_pad_0 = const()[name = tensor<string, []>("input_1423_pad_0"), val = tensor<int32, [4]>([1, 1, 1, 1])];
            tensor<int32, [2]> input_1423_strides_0 = const()[name = tensor<string, []>("input_1423_strides_0"), val = tensor<int32, [2]>([1, 1])];
            tensor<int32, [2]> input_1423_dilations_0 = const()[name = tensor<string, []>("input_1423_dilations_0"), val = tensor<int32, [2]>([1, 1])];
            tensor<int32, []> input_1423_groups_0 = const()[name = tensor<string, []>("input_1423_groups_0"), val = tensor<int32, []>(1)];
            tensor<fp16, [1, 32, 256, 480]> input_1423_cast_fp16 = conv(bias = sn_conv_up3_0_bias_to_fp16, dilations = input_1423_dilations_0, groups = input_1423_groups_0, pad = input_1423_pad_0, pad_type = input_1423_pad_type_0, strides = input_1423_strides_0, weight = sn_conv_up3_0_weight_to_fp16, x = input_1421_cast_fp16)[name = tensor<string, []>("input_1423_cast_fp16")];
            tensor<fp16, [32]> input_1425_alpha_0_to_fp16 = const()[name = tensor<string, []>("input_1425_alpha_0_to_fp16"), val = tensor<fp16, [32]>(BLOBFILE(path = tensor<string, []>("@model_path/weights/weight.bin"), offset = tensor<uint64, []>(12714688)))];
            tensor<fp16, [1, 32, 256, 480]> input_1425_cast_fp16 = prelu(alpha = input_1425_alpha_0_to_fp16, x = input_1423_cast_fp16)[name = tensor<string, []>("input_1425_cast_fp16")];
            tensor<string, []> input_1427_pad_type_0 = const()[name = tensor<string, []>("input_1427_pad_type_0"), val = tensor<string, []>("custom")];
            tensor<int32, [4]> input_1427_pad_0 = const()[name = tensor<string, []>("input_1427_pad_0"), val = tensor<int32, [4]>([1, 1, 1, 1])];
            tensor<int32, [2]> input_1427_strides_0 = const()[name = tensor<string, []>("input_1427_strides_0"), val = tensor<int32, [2]>([1, 1])];
            tensor<int32, [2]> input_1427_dilations_0 = const()[name = tensor<string, []>("input_1427_dilations_0"), val = tensor<int32, [2]>([1, 1])];
            tensor<int32, []> input_1427_groups_0 = const()[name = tensor<string, []>("input_1427_groups_0"), val = tensor<int32, []>(1)];
            tensor<fp16, [1, 32, 256, 480]> input_1427_cast_fp16 = conv(bias = sn_conv_up3_2_bias_to_fp16, dilations = input_1427_dilations_0, groups = input_1427_groups_0, pad = input_1427_pad_0, pad_type = input_1427_pad_type_0, strides = input_1427_strides_0, weight = sn_conv_up3_2_weight_to_fp16, x = input_1425_cast_fp16)[name = tensor<string, []>("input_1427_cast_fp16")];
            tensor<fp16, [32]> input_1429_alpha_0_to_fp16 = const()[name = tensor<string, []>("input_1429_alpha_0_to_fp16"), val = tensor<fp16, [32]>(BLOBFILE(path = tensor<string, []>("@model_path/weights/weight.bin"), offset = tensor<uint64, []>(12714816)))];
            tensor<fp16, [1, 32, 256, 480]> input_1429_cast_fp16 = prelu(alpha = input_1429_alpha_0_to_fp16, x = input_1427_cast_fp16)[name = tensor<string, []>("input_1429_cast_fp16")];
            tensor<string, []> input_1431_pad_type_0 = const()[name = tensor<string, []>("input_1431_pad_type_0"), val = tensor<string, []>("custom")];
            tensor<int32, [4]> input_1431_pad_0 = const()[name = tensor<string, []>("input_1431_pad_0"), val = tensor<int32, [4]>([1, 1, 1, 1])];
            tensor<int32, [2]> input_1431_strides_0 = const()[name = tensor<string, []>("input_1431_strides_0"), val = tensor<int32, [2]>([1, 1])];
            tensor<int32, [2]> input_1431_dilations_0 = const()[name = tensor<string, []>("input_1431_dilations_0"), val = tensor<int32, [2]>([1, 1])];
            tensor<int32, []> input_1431_groups_0 = const()[name = tensor<string, []>("input_1431_groups_0"), val = tensor<int32, []>(1)];
            tensor<fp16, [1, 64, 256, 480]> input_1431_cast_fp16 = conv(bias = sn_conv_out_0_bias_to_fp16, dilations = input_1431_dilations_0, groups = input_1431_groups_0, pad = input_1431_pad_0, pad_type = input_1431_pad_type_0, strides = input_1431_strides_0, weight = sn_conv_out_0_weight_to_fp16, x = input_1429_cast_fp16)[name = tensor<string, []>("input_1431_cast_fp16")];
            tensor<fp16, [1, 16, 512, 960]> input_1433_cast_fp16 = pixel_shuffle(upscale_factor = var_7663, x = input_1431_cast_fp16)[name = tensor<string, []>("input_1433_cast_fp16")];
            tensor<fp16, [16]> input_alpha_0_to_fp16 = const()[name = tensor<string, []>("input_alpha_0_to_fp16"), val = tensor<fp16, [16]>(BLOBFILE(path = tensor<string, []>("@model_path/weights/weight.bin"), offset = tensor<uint64, []>(12714944)))];
            tensor<fp16, [1, 16, 512, 960]> input_cast_fp16 = prelu(alpha = input_alpha_0_to_fp16, x = input_1433_cast_fp16)[name = tensor<string, []>("input_cast_fp16")];
            tensor<string, []> var_8101_pad_type_0 = const()[name = tensor<string, []>("op_8101_pad_type_0"), val = tensor<string, []>("custom")];
            tensor<int32, [4]> var_8101_pad_0 = const()[name = tensor<string, []>("op_8101_pad_0"), val = tensor<int32, [4]>([1, 1, 1, 1])];
            tensor<int32, [2]> var_8101_strides_0 = const()[name = tensor<string, []>("op_8101_strides_0"), val = tensor<int32, [2]>([1, 1])];
            tensor<int32, [2]> var_8101_dilations_0 = const()[name = tensor<string, []>("op_8101_dilations_0"), val = tensor<int32, [2]>([1, 1])];
            tensor<int32, []> var_8101_groups_0 = const()[name = tensor<string, []>("op_8101_groups_0"), val = tensor<int32, []>(1)];
            tensor<fp16, [1, 4, 512, 960]> var_8101_cast_fp16 = conv(bias = sn_conv_out_3_bias_to_fp16, dilations = var_8101_dilations_0, groups = var_8101_groups_0, pad = var_8101_pad_0, pad_type = var_8101_pad_type_0, strides = var_8101_strides_0, weight = sn_conv_out_3_weight_to_fp16, x = input_cast_fp16)[name = tensor<string, []>("op_8101_cast_fp16")];
            tensor<int32, [2]> var_8102 = const()[name = tensor<string, []>("op_8102"), val = tensor<int32, [2]>([3, 1])];
            tensor<int32, []> var_8103_axis_0 = const()[name = tensor<string, []>("op_8103_axis_0"), val = tensor<int32, []>(1)];
            tensor<fp16, [1, 3, 512, 960]> var_8103_cast_fp16_0, tensor<fp16, [1, 1, 512, 960]> var_8103_cast_fp16_1 = split(axis = var_8103_axis_0, split_sizes = var_8102, x = var_8101_cast_fp16)[name = tensor<string, []>("op_8103_cast_fp16")];
            tensor<fp16, [1, 1, 512, 960]> occl_cast_fp16 = add(x = occl_13_cast_fp16, y = var_8103_cast_fp16_1)[name = tensor<string, []>("occl_cast_fp16")];
            tensor<int32, []> var_8108 = const()[name = tensor<string, []>("op_8108"), val = tensor<int32, []>(1)];
            tensor<bool, []> var_8109_interleave_0 = const()[name = tensor<string, []>("op_8109_interleave_0"), val = tensor<bool, []>(false)];
            tensor<fp16, [1, 5, 512, 960]> imgt_pred = concat(axis = var_8108, interleave = var_8109_interleave_0, values = (bi_flow_13_cast_fp16, occl_cast_fp16))[name = tensor<string, []>("op_8109_cast_fp16")];
        } -> (imgt_pred);
}